checkpoints/epoch_29_checkpoint.pth (torch, 954451 bytes, 194 tensors)

transformer_encoder.layers.0.self_attn.in_proj_weight f4 [12, 4]
0	0x0112d5a6	2.696925e-38
1	0x8086f79e	-1.2394785e-38
2	0x80869387	-1.235888e-38
3	0x81574eaf	-3.9545716e-38
4	0x006ee9a2	1.0185716e-38
5	0x017f607c	4.6905327e-38
6	0x000fdb44	1.45619e-39
7	0x00c788c5	1.8324327e-38
8	0x81962630	-5.5156094e-38
9	0x80874ede	-1.2426084e-38
10	0x81073f48	-2.4840986e-38
11	0x81309e90	-3.2439858e-38
12	0x001010cc	1.475394e-39
13	0x8057725e	-8.030715e-39
14	0x003078f9	4.4515e-39
15	0x8098e910	-1.4042602e-38
16	0x8130291c	-3.235559e-38
17	0x0075e969	1.0828485e-38
18	0x00be5b06	1.7481397e-38
19	0x007d4ae7	1.1506307e-38
20	0x011c1691	2.8668865e-38
21	0x00d2b84c	1.9351567e-38
22	0x0086eebe	1.2391601e-38
23	0x00913f66	1.333889e-38
24	0x010b929b	2.5635452e-38
25	0x804091ae	-5.929732e-39
26	0x8053880b	-7.671149e-39
27	0x80e9078b	-2.1400377e-38
28	0x8058c6c3	-8.152826e-39
29	0x01b1da87	6.53331e-38
30	0x80136292	-1.780235e-39
31	0x81a0688e	-5.8924746e-38
32	0xb03ce320	-6.8716766e-10
33	0xb152fe9a	-3.0703746e-09
34	0xb2de0002	-2.5844205e-08
35	0x381643db	3.5825982e-05
36	0x36cb5915	6.060242e-06
37	0x37c14c9b	2.3043065e-05
38	0xb8a53966	-7.8785044e-05
39	0x3b475015	0.0030412723
40	0x3633545a	2.6722178e-06
41	0x369614d2	4.472772e-06
42	0xb8e1c23b	-0.00010765014
43	0x3c5b06ab	0.013368289
44	0xb613f6d5	-2.2048382e-06
45	0xb63c8ef7	-2.80974e-06
46	0xb819f3d9	-3.6705143e-05
47	0x385db22b	5.2856438e-05

transformer_encoder.layers.0.self_attn.in_proj_bias f4 [12]
0	0x00000000	0.0
1	0x00000000	0.0
2	0x00000000	0.0
3	0x00000000	0.0
4	0x00000000	0.0
5	0x00000000	0.0
6	0x00000000	0.0
7	0x00000000	0.0
8	0x37b5ca2c	2.1671025e-05
9	0xba802bc4	-0.0009778668
10	0xba7135f3	-0.00092014595
11	0x3934a035	0.0001722582

transformer_encoder.layers.0.self_attn.out_proj.weight f4 [4, 4]
0	0x34dfdbd6	4.1696939e-07
1	0x3bacecb6	0.0052772416
2	0x3aa45614	0.001253786
3	0xbacbb911	-0.0015542825
4	0xb652f20d	-3.143333e-06
5	0xbb29f3c2	-0.0025932644
6	0xbb95725d	-0.0045607523
7	0xbaea9a80	-0.0017898828
8	0x36148019	2.2128281e-06
9	0x37b80eb5	2.1941358e-05
10	0xb823c5df	-3.904651e-05
11	0x377e1698	1.514484e-05
12	0x36247795	2.450751e-06
13	0x3802065b	3.1000334e-05
14	0x390a8f4b	0.00013214086
15	0x36e48c24	6.811244e-06

transformer_encoder.layers.0.self_attn.out_proj.bias f4 [4]
0	0xbd5056b9	-0.050863955
1	0xbc9dc3f2	-0.019258473
2	0x3c3d92d3	0.01157065
3	0x3d55beab	0.05218379

transformer_encoder.layers.0.linear1.weight f4 [2048, 4]
0	0xb748ab2a	-1.1960781e-05
1	0xb5e1965b	-1.6807566e-06
2	0x33ecddc0	1.10299425e-07
3	0x3859a64a	5.18917e-05
4	0x3525f900	6.182963e-07
5	0xb63d6d91	-2.822697e-06
6	0xb880fa0c	-6.1500905e-05
7	0x3907547d	0.00012906078
8	0x2e5ede2d	5.0674288e-11
9	0xacac52b5	-4.8977163e-12
10	0xaf1bd9d4	-1.4174556e-10
11	0x2fa55d24	3.0079506e-10
12	0xb427d13a	-1.5629203e-07
13	0xb2bde5b1	-2.2106947e-08
14	0xb4872aa1	-2.5176726e-07
15	0x3542bbdc	7.2544003e-07
16	0x0146063c	3.637133e-38
17	0x8159ef10	-4.0028124e-38
18	0x80664fe0	-9.395874e-39
19	0x0042aa34	6.1222e-39
20	0xa9e4979b	-1.01515333e-13
21	0x27e5a466	6.373851e-15
22	0x2a5e619e	1.9751429e-13
23	0x2a79293a	2.2129946e-13
24	0x8102784c	-2.3963538e-38
25	0x0109a004	2.5277732e-38
26	0x00931b28	1.350956e-38
27	0x80d59f58	-1.9618122e-38
28	0x012ef010	3.213099e-38
29	0x0143d784	3.5970468e-38
30	0x81068123	-2.4704564e-38
31	0x00bf8760	1.7589143e-38
32	0xa1babf13	-1.2654427e-18
33	0x9f80dad2	-5.4572116e-20
34	0xa148b2a3	-6.799906e-19
35	0x22943b35	4.017817e-18
36	0xac4138fd	-2.7458584e-12
37	0xab85625d	-9.47752e-13
38	0xaaccb9a4	-3.6366494e-13
39	0x2c6c83ae	3.3610714e-12
40	0x8196af76	-5.535307e-38
41	0x80d58ca8	-1.9611419e-38
42	0x812ac160	-3.1362808e-38
43	0x81882ec6	-5.0025627e-38
44	0x3179332b	3.6263355e-09
45	0x323a79d8	1.0854329e-08
46	0x32b7a65f	2.137966e-08
47	0x318ae425	4.0422656e-09
48	0x009d6183	1.4453154e-38
49	0x015025ca	3.823068e-38
50	0x00a0f552	1.4781684e-38
51	0x8192023d	-5.363514e-38
52	0x359af122	1.1544073e-06
53	0x34e7e877	4.3196243e-07
54	0xb4a3c7b2	-3.0506413e-07
55	0xb6b312b8	-5.336795e-06
56	0xb08d635e	-1.0287342e-09
57	0xaef5f31c	-1.1184495e-10
58	0xaf8e45be	-2.5879204e-10
59	0x31970345	4.39505e-09
60	0x004204e0	6.062892e-39
61	0x004a3dac	6.81795e-39
62	0x811bcc62	-2.861564e-38
63	0x800abc24	-9.85847e-40
64	0x80e675c8	-2.1164416e-38
65	0x01bc7034	6.9221297e-38
66	0x0174a938	4.493713e-38
67	0x8149f1b9	-3.7091297e-38
68	0x32abf38d	2.0017774e-08
69	0xb27a8446	-1.4581991e-08
70	0x31477080	2.902226e-09
71	0xb2eb7651	-2.7411405e-08
72	0x014fb461	3.814931e-38
73	0x003b7766	5.461126e-39
74	0x819a386b	-5.665162e-38
75	0x814859a0	-3.67985e-38
76	0x26877b0b	9.400858e-16
77	0x25d2578a	3.6488512e-16
78	0xa7198503	-2.1305121e-15
79	0xa786cf30	-3.7417104e-15
80	0x0065f478	9.363084e-39
81	0x81905502	-5.3019226e-38
82	0x010b1b38	2.5549796e-38
83	0x806a2719	-9.748588e-39
84	0x01283f49	3.0902132e-38
85	0x80cdddae	-1.89058e-38
86	0x000e9ed5	1.342675e-39
87	0x815047f6	-3.8255196e-38
88	0xa85eeccf	-1.2374825e-14
89	0xa6077fea	-4.701089e-16
90	0x28a5c69e	1.8404816e-14
91	0x290b6406	3.0950957e-14
92	0x0088fed0	1.2581037e-38
93	0x0116f0b4	2.7723345e-38
94	0x81bbc48a	-6.897497e-38
95	0x816a04f0	-4.2982555e-38
96	0xb249c226	-1.1743884e-08
97	0x320f87a0	8.354533e-09
98	0x311079ae	2.1023925e-09
99	0x30f11951	1.7542253e-09
100	0x2ed14e50	9.518131e-11
101	0xacbed4b1	-5.4237383e-12
102	0xaf88a2ec	-2.485402e-10
103	0x2f8d4ab2	2.5700825e-10
104	0x8170047e	-4.408426e-38
105	0x8116b912	-2.768343e-38
106	0x8168c349	-4.275178e-38
107	0x8142a414	-3.5749893e-38
108	0x00ca1f88	1.8562082e-38
109	0x0070a9b0	1.0346448e-38
110	0x00b22566	1.6360134e-38
111	0x012d53a0	3.183508e-38
112	0xb422fe72	-1.5179992e-07
113	0x33035354	3.05766e-08
114	0xb3c657c0	-9.236055e-08
115	0x34ac6f9f	3.2118712e-07
116	0x019577be	5.490578e-38
117	0x0179f5a8	4.5910327e-38
118	0x01339cc3	3.298958e-38
119	0x804cf3ec	-7.067e-39
120	0x0142c478	3.5773132e-38
121	0x01711d20	4.4285605e-38
122	0x0131595a	3.2573872e-38
123	0x80f4b3a0	-2.2472298e-38
124	0x1f22ddcd	3.4488304e-20
125	0x9cdf8f7a	-1.479399e-21
126	0x9f724c5c	-5.1308656e-20
127	0x1f8be509	5.9247697e-20
128	0xa8939446	-1.6384582e-14
129	0xa66e4d66	-8.267773e-16
130	0x28e85eac	2.5798232e-14
131	0x2938902f	4.0981267e-14
132	0xac740952	-3.467966e-12
133	0x2b01d43c	4.612454e-13
134	0x2ab4f7a0	3.2146247e-13
135	0xac8c809e	-3.9933187e-12
136	0x8042d314	-6.136863e-39
137	0x811a86ec	-2.8382135e-38
138	0x017cb418	4.64143e-38
139	0x81a44d8d	-6.0355365e-38
140	0x0141f91e	3.5627234e-38
141	0x803100a0	-4.500164e-39
142	0x8103d679	-2.4214777e-38
143	0x0015b3d2	1.993053e-39
144	0x0157db6a	3.9646685e-38
145	0x011e1d8c	2.9041216e-38
146	0x01588cf3	3.977406e-38
147	0x80344654	-4.800675e-39
148	0xb3aae389	-7.95763e-08
149	0xb258b049	-1.2612937e-08
150	0xb38b4f8c	-6.4871614e-08
151	0x35013217	4.8129135e-07
152	0x01899528	5.053988e-38
153	0x003f3ab4	5.806695e-39
154	0x8183a5ae	-4.835954e-38
155	0x00db2e14	2.0128503e-38
156	0x80411978	-5.978444e-39
157	0x01ae61b3	6.4057697e-38
158	0x011d7cb9	2.892583e-38
159	0x806b0c84	-9.830888e-39
160	0xb28e79dd	-1.6586393e-08
161	0xb115b004	-2.1782407e-09
162	0xb2936e60	-1.7163245e-08
163	0x338a3dca	6.437365e-08
164	0xa4ae3f85	-7.556808e-17
165	0x225083b8	2.8258988e-18
166	0x258e3500	2.4668988e-16
167	0xa5bb4683	-3.248711e-16
168	0x006fea78	1.0277852e-38
169	0x81b312b7	-6.578107e-38
170	0x81a406d0	-6.025386e-38
171	0x816a463e	-4.3029408e-38
172	0x818d114f	-5.1820056e-38
173	0x00e908cc	2.1400826e-38
174	0x0144425a	3.604712e-38
175	0x803ee800	-5.777027e-39
176	0x00d62ee4	1.9669617e-38
177	0x80a56174	-1.5187816e-38
178	0x00bbcd60	1.7246912e-38
179	0x81a4c464	-6.052589e-38
180	0x9f7c28fe	-5.3396984e-20
181	0x9e4dda3a	-1.0897738e-20
182	0x9f7cd759	-5.3541207e-20
183	0x1ec3ab4a	2.0717272e-20
184	0x36a67a15	4.9613977e-06
185	0x3600f7fc	1.9217832e-06
186	0x379d59bd	1.8757646e-05
187	0xb80c9113	-3.3513712e-05
188	0x00f26630	2.2260848e-38
189	0x818267f3	-4.790362e-38
190	0x01b4aab2	6.6366493e-38
191	0x80989734	-1.4013237e-38
192	0xb128b8f4	-2.4552351e-09
193	0xb09a8fd1	-1.124585e-09
194	0xb15f27e9	-3.2473457e-09
195	0xb15e731d	-3.2370686e-09
196	0x8149096c	-3.692463e-38
197	0x01b03b54	6.473732e-38
198	0x0125af5c	3.0431528e-38
199	0x8107ad10	-2.491975e-38
200	0x31af844f	5.108212e-09
201	0x30b2750c	1.2984471e-09
202	0xb2fdec95	-2.9560661e-08
203	0xb30c84f7	-3.271722e-08
204	0x2a534a9a	1.8766447e-13
205	0xa9b9883b	-8.2392826e-14
206	0xab9a9f15	-1.0986512e-12
207	0x2c46406a	2.817325e-12
208	0x29391e81	4.110471e-14
209	0xa97c70b6	-5.6053e-14
210	0xa99b0d9b	-6.885743e-14
211	0x2a123163	1.298454e-13
212	0xb1943114	-4.3129464e-09
213	0xb33b33e1	-4.3586514e-08
214	0xb3993bf8	-7.135526e-08
215	0x33875380	6.301616e-08
216	0x00607218	8.857137e-39
217	0x808fa680	-1.3192205e-38
218	0x8172da58	-4.4605034e-38
219	0x0011e870	1.644586e-39
220	0x33f464f2	1.1380497e-07
221	0xb3594ec6	-5.0595894e-08
222	0xb485e842	-2.494217e-07
223	0x360a9fd8	2.0656644e-06
224	0xacdb966e	-6.2410554e-12
225	0xaca6e715	-4.743659e-12
226	0xacc41836	-5.573343e-12
227	0x2d0a8354	7.8735525e-12
228	0x00560190	7.898413e-39
229	0x00fac314	2.3028855e-38
230	0x80b60fdc	-1.671975e-38
231	0x81338b74	-3.297716e-38
232	0x008f717c	1.3173186e-38
233	0x0109cab6	2.5308364e-38
234	0x8056fb6c	-7.988046e-39
235	0x8059ce26	-8.247311e-39
236	0x019f89e6	5.860525e-38
237	0x011af184	2.8458612e-38
238	0x016c4a3a	4.339961e-38
239	0x808f438c	-1.3156707e-38
240	0x8119feb0	-2.828439e-38
241	0x813c2008	-3.4553128e-38
242	0x80169bd0	-2.076276e-39
243	0x812e1d8c	-3.1979952e-38
244	0xa4236782	-3.5432665e-17
245	0xa2903f85	-3.9098532e-18
246	0xa3e3910e	-2.4672822e-17
247	0x2429335c	3.6689537e-17
248	0x8134f2a9	-3.323488e-38
249	0x011fb6d6	2.9334866e-38
250	0x80fbe0ea	-2.3131393e-38
251	0x8037325f	-5.069022e-39
252	0x000b4030	1.033217e-39
253	0x819c5d18	-5.743893e-38
254	0x804cc314	-7.049479e-39
255	0x80780678	-1.102258e-38

transformer_encoder.layers.0.linear1.bias f4 [2048]
0	0x38e5539a	0.00010935143
1	0x39a0c788	0.0003066624
2	0x301836f1	5.5375354e-10
3	0x35d5c603	1.5927366e-06
4	0x80a65638	-1.5275622e-38
5	0x2b74db6b	8.699072e-13
6	0x81863c4e	-4.931036e-38
7	0x8108c04e	-2.5117227e-38
8	0x2351eee2	1.1380498e-17
9	0xacf7a0ec	-7.038028e-12
10	0x00d07338	1.9143116e-38
11	0xb2e6d70d	-2.6873318e-08
12	0x81aa80d6	-6.263301e-38
13	0xb704b5af	-7.910115e-06
14	0x3237b6cc	1.0693565e-08
15	0x8104f5ee	-2.4421017e-38
16	0x81517c48	-3.8476405e-38
17	0x324adc9a	1.18081065e-08
18	0x0071e7c3	1.0460552e-38
19	0xa8129942	-8.1378606e-15
20	0x8157e6e9	-3.9654933e-38
21	0x80c0ac9c	-1.7694336e-38
22	0x29f9f22c	1.10998314e-13
23	0x8191393b	-5.334671e-38
24	0xb395d305	-6.9767374e-08
25	0x2e8c65dc	6.384557e-11
26	0x814fea5c	-3.818804e-38
27	0x819eba73	-5.8307575e-38
28	0xb6096374	-2.047248e-06
29	0x8024f490	-3.39381e-39
30	0x8094b4b8	-1.3656483e-38
31	0x9ef69768	-2.6108883e-20
32	0x2a0d1297	1.2529765e-13
33	0xacfed112	-7.2423257e-12
34	0x81a2bbab	-5.977869e-38
35	0x810ed48a	-2.623377e-38
36	0x8118c37a	-2.8058238e-38
37	0x3588634c	1.0161689e-06
38	0x816ab6ec	-4.3110252e-38
39	0x8174fa92	-4.4995498e-38
40	0x341c9541	1.458293e-07
41	0xa5c88e37	-3.4790838e-16
42	0x813c63a1	-3.4601627e-38
43	0x81bf0811	-7.0173894e-38
44	0x814144d6	-3.549789e-38
45	0x1e4737b4	1.05464914e-20
46	0xb84af973	-4.839287e-05
47	0x806e0b08	-1.0105862e-38
48	0xb2d01e85	-2.4228266e-08
49	0x81202354	-2.9412705e-38
50	0xb54eb0ee	-7.6998447e-07
51	0x2c668a44	3.2761719e-12
52	0xab38b1f4	-6.561689e-13
53	0xb4b88a5b	-3.4373338e-07
54	0x815ba97c	-4.0345546e-38
55	0x36a09a5b	4.786341e-06
56	0xadd6ca2c	-2.4418766e-11
57	0x81997a43	-5.637876e-38
58	0x81bb8192	-6.8878875e-38
59	0x8134f2e8	-3.3235055e-38
60	0x81960f54	-5.512329e-38
61	0x24f28ebc	1.0519257e-16
62	0x812d5348	-3.1834833e-38
63	0x81ada259	-6.378312e-38
64	0x803dae80	-5.664564e-39
65	0xb6bbc171	-5.595554e-06
66	0xa8614ff2	-1.2507344e-14
67	0xb3822f1d	-6.0621666e-08
68	0x8147722d	-3.6632445e-38
69	0x815d6971	-4.066694e-38
70	0xb52dfc7b	-6.481493e-07
71	0x3387ddd1	6.3267755e-08
72	0x8170d678	-4.4234912e-38
73	0x2e0ffea2	3.2740595e-11
74	0x1c3a23e5	6.158863e-22
75	0x29c6b298	8.8239474e-14
76	0x80dbb9e8	-2.0178664e-38
77	0x81a15610	-5.9265553e-38
78	0xaa498fac	-1.7902232e-13
79	0x81526480	-3.8643014e-38
80	0x8180f417	-4.7370026e-38
81	0x00e9e5a8	2.1480056e-38
82	0x35a5de28	1.2358114e-06
83	0x00f1b76e	2.2198157e-38
84	0x364e33a0	3.0726442e-06
85	0x813a0221	-3.4164332e-38
86	0xa30d1ec2	-7.6501385e-18
87	0x38797308	5.9473357e-05
88	0xb06141c4	-8.194798e-10
89	0x807d3bc8	-1.1500882e-38
90	0x819ca908	-5.75479e-38
91	0x8135024a	-3.3246092e-38
92	0xb138985d	-2.6862133e-09
93	0x3194c9d4	4.330312e-09
94	0x80974f50	-1.3895612e-38
95	0x8130676a	-3.240029e-38
96	0x818bd846	-5.1370873e-38
97	0x80ddc446	-2.0366054e-38
98	0x2cde9e40	6.3271888e-12
99	0xa431a65e	-3.8521675e-17
100	0xb2c51ecc	-2.2947823e-08
101	0x816bbd5a	-4.3298536e-38
102	0x009745c0	1.3892182e-38
103	0x2596131b	2.6033799e-16
104	0x817bc6d0	-4.624406e-38
105	0x80883db0	-1.2511757e-38
106	0x8178fb10	-4.5730535e-38
107	0x81aeaabe	-6.416251e-38
108	0x80884b2f	-1.2516598e-38
109	0x8125b736	-3.043716e-38
110	0x81b34898	-6.585838e-38
111	0x809db3a8	-1.4482621e-38
112	0x81a8fe88	-6.207869e-38
113	0x3359d74f	5.072007e-08
114	0x00291f7b	3.776548e-39
115	0x8120789a	-2.9473886e-38
116	0x2d07f01a	7.727175e-12
117	0x812df2ef	-3.1949378e-38
118	0x816c101d	-4.3357915e-38
119	0x81756bec	-4.5076823e-38
120	0x807a0f14	-1.120934e-38
121	0x80e6b951	-2.1188643e-38
122	0x81605274	-4.120146e-38
123	0x80ea20c8	-2.1501266e-38
124	0x814b40f2	-3.7331807e-38
125	0x8138ef08	-3.396696e-38
126	0x016f9a0a	4.4007885e-38
127	0x809fc434	-1.4672228e-38
128	0x0010a938	1.530072e-39
129	0x8133410c	-3.2923776e-38
130	0xb338c8c9	-4.302345e-08
131	0x80f37138	-2.2356641e-38
132	0xadd5a2bf	-2.428757e-11
133	0x0d2bc8af	5.2935007e-31
134	0x812c5d6c	-3.1658438e-38
135	0x363c0c81	2.8021461e-06
136	0x2f715048	2.1947344e-10
137	0x817feba4	-4.7005167e-38
138	0x812d64d7	-3.184743e-38
139	0x80dd9c68	-2.0351753e-38
140	0xb678470d	-3.6996237e-06
141	0x81182d48	-2.7950479e-38
142	0x8125dcae	-3.0464044e-38
143	0xab814980	-9.186402e-13
144	0xb69a7c48	-4.604026e-06
145	0x81187ec3	-2.8008938e-38
146	0x2491be2f	6.320591e-17
147	0x1dbdfc18	5.0288542e-21
148	0xb5fe8f76	-1.8966227e-06
149	0xb2a41941	-1.9103597e-08
150	0x803dbc14	-5.669435e-39
151	0xb325610e	-3.8505327e-08
152	0xb7997046	-1.8291303e-05
153	0x3a05e3a1	0.0005107467
154	0xb40185f0	-1.2062787e-07
155	0x817f94b6	-4.6942798e-38
156	0xafc11ea4	-3.5128267e-10
157	0xb0a0670c	-1.167082e-09
158	0x81b2361e	-6.546453e-38
159	0x2398d5e2	1.6570456e-17
160	0x811b61a8	-2.853907e-38
161	0x32b70854	2.1307791e-08
162	0x8106a226	-2.472825e-38
163	0x370e0f14	8.46737e-06
164	0xa77854e0	-3.4462925e-15
165	0xb60098f0	-1.9162508e-06
166	0x8176ef2e	-4.5354667e-38
167	0x819ab77f	-5.683397e-38
168	0xb43e84da	-1.774346e-07
169	0xac5ab7c9	-3.1081685e-12
170	0x2f9482e0	2.7014035e-10
171	0x01acc8c1	6.347089e-38
172	0xafa93706	-3.0780017e-10
173	0x341c909e	1.4581244e-07
174	0x8071c414	-1.044775e-38
175	0x814887c6	-3.683161e-38
176	0x81780086	-4.5550782e-38
177	0x8152cf74	-3.871975e-38
178	0x17f8da97	1.6081804e-24
179	0x39519114	0.00019985839
180	0x81ac024e	-6.318613e-38
181	0x31c24987	5.654502e-09
182	0xb510d6cb	-5.3956745e-07
183	0x80448598	-6.292738e-39
184	0x80e82a88	-2.1321092e-38
185	0x2cdab2d4	6.2157866e-12
186	0x38124f04	3.48827e-05
187	0x80bdf3f8	-1.7444428e-38
188	0xb59266b9	-1.0907744e-06
189	0x81404f6a	-3.5321807e-38
190	0xad013b1a	-7.345924e-12
191	0xb5a810a1	-1.2521815e-06
192	0x81912900	-5.332342e-38
193	0x81b2da98	-6.570054e-38
194	0xa54341a0	-1.6935789e-16
195	0x818c3405	-5.150252e-38
196	0xa58a8fe1	-2.403668e-16
197	0x81098569	-2.5258643e-38
198	0xb0af0e10	-1.2736923e-09
199	0xb0b9bf52	-1.3514898e-09
200	0x37f69a28	2.939727e-05
201	0x2f5f893e	2.033049e-10
202	0x80dce948	-2.0287495e-38
203	0x2ece74c3	9.3885365e-11
204	0x8153a999	-3.887626e-38
205	0x81a75fbb	-6.148348e-38
206	0xb1ab7b8c	-4.9908007e-09
207	0x35eb8fee	1.7550753e-06
208	0x14e5c918	2.3202408e-26
209	0xb4175744	-1.4094718e-07
210	0x805dc110	-8.609959e-39
211	0xb18d5cb7	-4.1141806e-09
212	0x81beca29	-7.008506e-38
213	0x81a9def3	-6.240071e-38
214	0x8192a9e0	-5.387569e-38
215	0x35b537e4	1.3501817e-06
216	0xa5541df4	-1.8398217e-16
217	0x312a7643	2.480548e-09
218	0x00182f6c	2.221064e-39
219	0x808bf524	-1.2853074e-38
220	0x816a7450	-4.3062462e-38
221	0x0080de54	1.18347e-38
222	0x8190f382	-5.324666e-38
223	0x81ba3cca	-6.8412837e-38
224	0x8141373c	-3.548813e-38
225	0xa54405e8	-1.7002291e-16
226	0xb2cc60bc	-2.3792715e-08
227	0xaca32bce	-4.637602e-12
228	0x81823c46	-4.7840946e-38
229	0xb2cd68ae	-2.3912744e-08
230	0x2ed62b57	9.739292e-11
231	0x8181a95b	-4.763013e-38
232	0xb3a64631	-7.742745e-08
233	0xb429524c	-1.5769291e-07
234	0x811e21d2	-2.9044282e-38
235	0x807f0950	-1.1666449e-38
236	0x010458cc	2.430828e-38
237	0x809be214	-1.4315603e-38
238	0x2f8b1ce8	2.5304492e-10
239	0xaf1fb584	-1.4525453e-10
240	0x9f697fe3	-4.9445455e-20
241	0xb2dcae10	-2.5690525e-08
242	0xa7c5ba36	-5.4880374e-15
243	0x819a405e	-5.666303e-38
244	0x38172447	3.603499e-05
245	0x2c52d591	2.9961348e-12
246	0x813a53b8	-3.422287e-38
247	0x1df19eb6	6.3956272e-21
248	0x81b91e78	-6.800199e-38
249	0x0928d8f6	2.0324279e-33
250	0x038f8f77	8.4377225e-37
251	0x8120ece2	-2.9557314e-38
252	0x211c8372	5.302882e-19
253	0x2a279466	1.4884066e-13
254	0x8f71e280	-1.192584e-29
255	0x3076e490	8.9819086e-10

transformer_encoder.layers.0.linear2.weight f4 [4, 2048]
0	0xb8b00d54	-8.3948165e-05
1	0x39520838	0.00020030222
2	0xafaf292b	-3.1861566e-10
3	0x33b68039	8.498359e-08
4	0x81a55f9e	-6.074863e-38
5	0xadc9e9e4	-2.2954923e-11
6	0x01a78d0a	6.154849e-38
7	0x01be72e4	6.9959837e-38
8	0x241dc522	3.4210926e-17
9	0xb3000241	-2.9804372e-08
10	0x00104ac2	1.496186e-39
11	0xb7249daa	-9.811871e-06
12	0x80f068b6	-2.2078082e-38
13	0x364b0987	3.0254903e-06
14	0x32949330	1.72964e-08
15	0x00fafee0	2.3050306e-38
16	0x002b6a29	3.98701e-39
17	0xb8a43a1e	-7.8309546e-05
18	0x00fe7a44	2.3370077e-38
19	0xab875183	-9.614951e-13
20	0x8073b9ec	-1.0627778e-38
21	0x00382a25	5.157906e-39
22	0xac8cdd39	-4.0036e-12
23	0x8170ce28	-4.4228948e-38
24	0xb82189fd	-3.8513903e-05
25	0x3095d49b	1.0901603e-09
26	0x01328c5f	3.2794148e-38
27	0x80191a62	-2.305352e-39
28	0xb9ce2c4e	-0.0003932439
29	0x80b46539	-1.6566701e-38
30	0x804547b9	-6.362378e-39
31	0x20af080c	2.9651478e-19
32	0xac6874ba	-3.303398e-12
33	0x326962a5	1.3584814e-08
34	0x8081e95b	-1.1930491e-38
35	0x80db7da7	-2.0157049e-38
36	0x80eb79d4	-2.1625045e-38
37	0xb2acdd96	-2.0124201e-08
38	0x0177a92a	4.5488104e-38
39	0x819d9a8b	-5.789445e-38
40	0xb21428b2	-8.623987e-09
41	0xa7f1171f	-6.6916005e-15
42	0x013801fd	3.379689e-38
43	0x004d4582	7.096268e-39
44	0x808dbbd0	-1.301618e-38
45	0xa52748db	-1.4509625e-16
46	0xb746fd14	-1.1860644e-05
47	0x817e22d0	-4.667741e-38
48	0xb9bcd4b1	-0.00036016622
49	0x802f821b	-4.362941e-39
50	0xba43d4d8	-0.0007470376
51	0x2d17e324	8.633792e-12
52	0xacc674a3	-5.6404477e-12
53	0xb6bb5ae9	-5.5836176e-06
54	0x00155320	1.958365e-39
55	0xb7f820c4	-2.9579161e-05
56	0xadf527f6	-2.7871021e-11
57	0x01963da1	5.518973e-38
58	0x8011a9a7	-1.622063e-39
59	0x00236170	3.249196e-39
60	0x00a66370	1.5280364e-38
61	0xa6d14bc6	-1.4522827e-15
62	0x818af54d	-5.1045183e-38
63	0x80e14c51	-2.0690364e-38
64	0x807fa136	-1.172094e-38
65	0xb86b9cfe	-5.6174576e-05
66	0x28bf2557	2.1221453e-14
67	0xb917d93a	-0.00014481405
68	0x801e46a1	-2.780402e-39
69	0x81886b84	-5.011279e-38
70	0x35b4d15e	1.3471979e-06
71	0x3398dd28	7.11828e-08
72	0x81b023c7	-6.470353e-38
73	0xb17e02ef	-3.6963532e-09
74	0x1c8facfe	9.507664e-22
75	0xac990c94	-4.349918e-12
76	0x8156ce8d	-3.9453785e-38
77	0x01a5bb14	6.087987e-38
78	0xad87cc6f	-1.543851e-11
79	0x816ffdf7	-4.4079578e-38
80	0x819913dc	-5.623182e-38
81	0x816e5f60	-4.3782124e-38
82	0x3364dfda	5.328898e-08
83	0x80df4a34	-2.0505935e-38
84	0x354611bf	7.378657e-07
85	0x011f13c9	2.9217883e-38
86	0x23b8b786	2.0027045e-17
87	0x3623e1ec	2.4420397e-06
88	0xb5ff9c32	-1.9044439e-06
89	0x00d7b630	1.9809988e-38
90	0x018e96a5	5.2378726e-38
91	0x00809fcb	1.1812266e-38
92	0xb39209b4	-6.80042e-08
93	0xb1bafd5c	-5.442116e-09
94	0x8115e06c	-2.7527993e-38
95	0x019422f6	5.441678e-38
96	0x01844988	4.8594654e-38
97	0x011d8612	2.8932537e-38
98	0xb2c8b928	-2.3367264e-08
99	0xa5cd459e	-3.5609006e-16
100	0xb82f1d7b	-4.1750707e-05
101	0x80ebdca4	-2.1660493e-38
102	0x00146e5c	1.8763e-39
103	0x25fd0928	4.3894708e-16
104	0x005b9187	8.409236e-39
105	0x00335a7a	4.716067e-39
106	0x01621f9d	4.1532326e-38
107	0x8101dfa4	-2.3854012e-38
108	0x818139cb	-4.7470045e-38
109	0x018f8b1c	5.2729516e-38
110	0x81944a38	-5.447311e-38
111	0x002dfd95	4.223565e-39
112	0x8190d274	-5.319923e-38
113	0x32fa63f9	2.9149293e-08
114	0x8015e454	-2.010454e-39
115	0x811f994c	-2.9313673e-38
116	0xae68fd3d	-5.2975613e-11
117	0x81afcc21	-6.457776e-38
118	0x80ff6aa9	-2.3456314e-38
119	0x815dfee8	-4.0774176e-38
120	0x01273902	3.0713957e-38
121	0x8060872a	-8.864695e-39
122	0x805b3940	-8.377568e-39
123	0x0123f49c	3.011387e-38
124	0x807a8b3f	-1.1253883e-38
125	0x004c39d3	7.000241e-39
126	0x8117bd9c	-2.7870358e-38
127	0x811b78d6	-2.85557e-38
128	0x80997892	-1.4094083e-38
129	0x00251ad8	3.407543e-39
130	0xb8ee15c9	-0.00011352782
131	0x0079c803	1.1183846e-38
132	0xb0b90787	-1.3462661e-09
133	0x0cfc373f	3.8859998e-31
134	0x0181088b	4.7399375e-38
135	0x3542bcf9	7.2545623e-07
136	0xb42fe1aa	-1.6380241e-07
137	0x80c67d99	-1.8228484e-38
138	0x808de07d	-1.3029336e-38
139	0x806d91a5	-1.0062316e-38
140	0x367aab4c	3.735261e-06
141	0x81406298	-3.5335568e-38
142	0x0162a351	4.1626818e-38
143	0x2ea1aa28	7.351658e-11
144	0x36885804	4.063362e-06
145	0x00b29b68	1.6402468e-38
146	0xa9b9c291	-8.249402e-14
147	0x1e270aa5	8.843108e-21
148	0x38cc439a	9.74007e-05
149	0xb7cdca5a	-2.4532132e-05
150	0x0009d31d	9.02253e-40
151	0xb3b74aae	-8.535186e-08
152	0x38405a0a	4.5860223e-05
153	0x39bfe7ba	0.0003660301
154	0xb389a2e7	-6.4091914e-08
155	0x0127d290	3.0824127e-38
156	0xb1f2a901	-7.0623405e-09
157	0xb3695e46	-5.433528e-08
158	0x00dead21	2.0449587e-38
159	0xa9abe2b4	-7.633252e-14
160	0x81a1fbbb	-5.9503275e-38
161	0xb93d3911	-0.00018045703
162	0x80b2cb6f	-1.6419697e-38
163	0xb59c75e2	-1.1657214e-06
164	0xae1ee66c	-3.6129696e-11
165	0xb8a38d69	-7.7987854e-05
166	0x007fe6fc	1.174597e-38
167	0x8199090c	-5.6216305e-38
168	0xb9847362	-0.0002526297
169	0xb123e4a3	-2.3849587e-09
170	0xb34fd959	-4.839362e-08
171	0x014b1593	3.730069e-38
172	0xb228b211	-9.819375e-09
173	0xb6483092	-2.9830594e-06
174	0x809d678f	-1.4455323e-38
175	0x814c6ba3	-3.7546108e-38
176	0x80c60c06	-1.8187741e-38
177	0x0115b491	2.7496528e-38
178	0x1812c9fe	1.8972038e-24
179	0xb9816fbc	-0.00024688046
180	0x817a2001	-4.594071e-38
181	0xb44cb956	-1.9066405e-07
182	0xb87b484a	-5.9910388e-05
183	0x00cf0679	1.901227e-38
184	0x0013c623	1.815952e-39
185	0xb18eb6b9	-4.153517e-09
186	0xb8d6b720	-0.00010238425
187	0x802dee90	-4.218177e-39
188	0xb83e38a6	-4.5352288e-05
189	0x81877e7e	-4.9772675e-38
190	0xaeb98c93	-8.437797e-11
191	0xb8153cc3	-3.5580957e-05
192	0x018e1a44	5.220025e-38
193	0x009ff3ac	1.4689257e-38
194	0x2cedc3d1	6.757685e-12
195	0x807a0cb4	-1.1208488e-38
196	0xa9e4ca01	-1.0160276e-13
197	0x814c32a8	-3.7505227e-38
198	0xb2677122	-1.3471693e-08
199	0x3180fe36	3.7541907e-09
200	0xb749c20f	-1.2025716e-05
201	0xb43271ce	-1.6618944e-07
202	0x00cc1c98	1.8744699e-38
203	0xb1274411	-2.434039e-09
204	0x806cf2e2	-1.0005364e-38
205	0x815d9d12	-4.0703982e-38
206	0xb57e7151	-9.478727e-07
207	0xb7dbffdf	-2.6225984e-05
208	0x9c508cd4	-6.9003443e-22
209	0x38616642	5.3739415e-05
210	0x814cdb8b	-3.7626397e-38
211	0xb3a84de5	-7.8372786e-08
212	0x81498ad9	-3.7017488e-38
213	0x00d3fd22	1.9468097e-38
214	0x80087f5e	-7.80375e-40
215	0x35d9fe17	1.624171e-06
216	0x2534cd4f	1.5682073e-16
217	0x31552a84	3.1019747e-09
218	0x81a0f815	-5.91307e-38
219	0x811aa953	-2.8406817e-38
220	0x80b9e448	-1.7071459e-38
221	0x017c56a6	4.6347257e-38
222	0x8150b731	-3.8335e-38
223	0x0164d870	4.2032273e-38
224	0x80594324	-8.197445e-39
225	0xa8e66f38	-2.5583363e-14
226	0xb8e5417f	-0.000109317705
227	0xaf120d73	-1.3283401e-10
228	0x0034bae6	4.842492e-39
229	0xb55fe290	-8.3403665e-07
230	0x2d03ed06	7.499118e-12
231	0x0038bc70	5.210386e-39
232	0xb8323c37	-4.2494587e-05
233	0x384da858	4.903259e-05
234	0x8002cd3b	-2.57294e-40
235	0x81697127	-4.2876524e-38
236	0x80db3588	-2.0131177e-38
237	0x0151719e	3.8468754e-38
238	0xb1fd9692	-7.380387e-09
239	0x2e322113	4.050189e-11
240	0xa3c04ee9	-2.0850101e-17
241	0xb6eeb159	-7.1135987e-06
242	0xabd0f951	-1.4848488e-12
243	0x80025762	-2.15018e-40
244	0xb6b43590	-5.3706535e-06
245	0x2aa56999	2.938316e-13
246	0x014f43b0	3.806846e-38
247	0x1cfdd1be	1.6796353e-21
248	0x01977bf4	5.5646504e-38
249	0x0a854e0f	1.2836797e-32
250	0x8229b42e	-1.2467868e-37
251	0x01114812	2.6684002e-38
252	0x1f480201	4.2353305e-20
253	0x282db00c	9.641603e-15
254	0x907bb6ed	-4.9641943e-29
255	0xb19a3f03	-4.4891535e-09

transformer_encoder.layers.0.linear2.bias f4 [4]
0	0xbdd50c72	-0.104027644
1	0xbb71a280	-0.003687054
2	0xba328017	-0.0006809248
3	0x3e144fc1	0.14483549

transformer_encoder.layers.0.norm1.weight f4 [4]
0	0x3d46e384	0.04855682
1	0x3dfc2964	0.12312582
2	0xbdd05b9f	-0.10173725
3	0x3e364add	0.17801996

transformer_encoder.layers.0.norm1.bias f4 [4]
0	0xbdd880e0	-0.10571456
1	0x3b54842c	0.0032427413
2	0xb928e3f3	-0.00016106646
3	0x3e1ba154	0.1519826

transformer_encoder.layers.0.norm2.weight f4 [4]
0	0x3dae9310	0.08524144
1	0x3afe3347	0.0019393944
2	0xbcfe1c4d	-0.031019354
3	0x3e521d65	0.20519026

transformer_encoder.layers.0.norm2.bias f4 [4]
0	0xbd5c8688	-0.053839236
1	0xbd603c6f	-0.054745134
2	0xbcbbed1e	-0.022940215
3	0x3e34c745	0.1765414

transformer_encoder.layers.1.self_attn.in_proj_weight f4 [12, 4]
0	0x0112d5a6	2.696925e-38
1	0x8086f79e	-1.2394785e-38
2	0x80869387	-1.235888e-38
3	0x81574eaf	-3.9545716e-38
4	0x006ee9a2	1.0185716e-38
5	0x017f607c	4.6905327e-38
6	0x000fdb44	1.45619e-39
7	0x00c788c5	1.8324327e-38
8	0x81962630	-5.5156094e-38
9	0x80874ede	-1.2426084e-38
10	0x81073f48	-2.4840986e-38
11	0x81309e90	-3.2439858e-38
12	0x001010cc	1.475394e-39
13	0x8057725e	-8.030715e-39
14	0x003078f9	4.4515e-39
15	0x8098e910	-1.4042602e-38
16	0x8130291c	-3.235559e-38
17	0x0075e969	1.0828485e-38
18	0x00be5b06	1.7481397e-38
19	0x007d4ae7	1.1506307e-38
20	0x011c1691	2.8668865e-38
21	0x00d2b84c	1.9351567e-38
22	0x0086eebe	1.2391601e-38
23	0x00913f66	1.333889e-38
24	0x010b929b	2.5635452e-38
25	0x804091ae	-5.929732e-39
26	0x8053880b	-7.671149e-39
27	0x80e9078b	-2.1400377e-38
28	0x8058c6c3	-8.152826e-39
29	0x01b1da87	6.53331e-38
30	0x80136292	-1.780235e-39
31	0x81a0688e	-5.8924746e-38
32	0xb898cacc	-7.285699e-05
33	0xb8194799	-3.6544723e-05
34	0xb72f7b02	-1.0459453e-05
35	0x3992bdcd	0.00027988703
36	0xb9608e40	-0.00021415297
37	0xb849302b	-4.7966994e-05
38	0xb806d5e4	-3.214729e-05
39	0x3956f3a4	0.00020499394
40	0x36d4efee	6.346024e-06
41	0x35a4b389	1.2271204e-06
42	0x35c5a275	1.4724925e-06
43	0xb7c5631f	-2.3530387e-05
44	0x3a3ace81	0.00071261084
45	0x3915b1b8	0.00014275953
46	0x38f2bd2f	0.000115746974
47	0xba5f2649	-0.000851248

transformer_encoder.layers.1.self_attn.in_proj_bias f4 [12]
0	0x00000000	0.0
1	0x00000000	0.0
2	0x00000000	0.0
3	0x00000000	0.0
4	0x00000000	0.0
5	0x00000000	0.0
6	0x00000000	0.0
7	0x00000000	0.0
8	0x3a132293	0.0005612757
9	0xba3e156d	-0.00072511175
10	0xb7e4f6a9	-2.7294578e-05
11	0x39f4a519	0.00046662314

transformer_encoder.layers.1.self_attn.out_proj.weight f4 [4, 4]
0	0x3a38f567	0.0007055611
1	0xb981db60	-0.00024768244
2	0xb83cd0ea	-4.501726e-05
3	0xbaca2b08	-0.0015424201
4	0xba857b4c	-0.001018384
5	0x3a669d0b	0.0008797205
6	0x388d19c7	6.728205e-05
7	0x3a07349d	0.00051576813
8	0x38caa931	9.663625e-05
9	0xba070c45	-0.00051516696
10	0xb70e5721	-8.484146e-06
11	0x3a6c32ae	0.00090102374
12	0x390afde4	0.00013255287
13	0xb91ebc2c	-0.00015138154
14	0xb703481e	-7.825e-06
15	0xb7e90cab	-2.7781663e-05

transformer_encoder.layers.1.self_attn.out_proj.bias f4 [4]
0	0xbd3097c4	-0.043113485
1	0xbd798002	-0.060913093
2	0xbca8d94e	-0.020611431
3	0x3e3e3a68	0.18576968

transformer_encoder.layers.1.linear1.weight f4 [2048, 4]
0	0x3c9d0b9a	0.019170571
1	0xbc9a2aa0	-0.018819153
2	0xbc16aad5	-0.009196003
3	0x3db4cff7	0.08828729
4	0x2f16de85	1.3721475e-10
5	0x35e7de36	1.7275513e-06
6	0x22fbe653	6.827755e-18
7	0xb9e87045	-0.00044334136
8	0x335a40ed	5.081613e-08
9	0xb18bddbe	-4.0706416e-09
10	0x32fcc1ef	2.9424852e-08
11	0x33955110	6.9530984e-08
12	0x91b9ac3d	-2.9294004e-28
13	0x2dc3d41b	2.2263127e-11
14	0x9f50a468	-4.4181707e-20
15	0xb92ff6df	-0.00016781267
16	0xbd6a7e07	-0.057249095
17	0xbd3e6b82	-0.046489246
18	0xbd16478b	-0.036689322
19	0x3d9c5637	0.07633632
20	0xb1d5585a	-6.2091603e-09
21	0x31573b44	3.1320306e-09
22	0xb04b7f82	-7.403217e-10
23	0xb312f6f4	-3.4217877e-08
24	0x813100d6	-3.2510365e-38
25	0x803ff987	-5.87515e-39
26	0x819a2cfe	-5.6635226e-38
27	0x81893b03	-5.041053e-38
28	0xbe0f41c7	-0.13989936
29	0xbe01f306	-0.12690362
30	0xbdf41ed1	-0.1191994
31	0x3e328fc3	0.17437653
32	0xa64a215e	-7.012805e-16
33	0xa5b525ba	-3.142406e-16
34	0x248185b4	5.6171334e-17
35	0xa73bcfac	-2.6064042e-15
36	0x261fcab0	5.54389e-16
37	0x2580e884	2.236202e-16
38	0xa566ca45	-2.0017852e-16
39	0xa6591492	-7.5314877e-16
40	0x3306550e	3.1276663e-08
41	0x3af00280	0.0018311292
42	0x3bb70356	0.0055851145
43	0xbbc9d837	-0.006159808
44	0x01ae0a06	6.393189e-38
45	0x87084d56	-1.025423e-34
46	0x81939ae6	-5.422154e-38
47	0xaf0c6e38	-1.2772083e-10
48	0x803b1a14	-5.42765e-39
49	0x81045ad4	-2.4309737e-38
50	0x81996310	-5.634547e-38
51	0x812bdb93	-3.1565276e-38
52	0xbd517771	-0.0511393
53	0xbd22d60b	-0.03975491
54	0xbceb267d	-0.028704876
55	0x3da78604	0.08179858
56	0x333e6ba6	4.4335728e-08
57	0x33606c68	5.225266e-08
58	0x32aa631a	1.983567e-08
59	0xb4a92c6a	-3.1511019e-07
60	0xa443a05c	-4.2419714e-17
61	0x2380dce1	1.3971334e-17
62	0xa38a4780	-1.4992271e-17
63	0xa524a218	-1.4279652e-16
64	0x80955778	-1.3714867e-38
65	0x8098d76d	-1.4036276e-38
66	0x018362ec	4.8263746e-38
67	0x81507e08	-3.829399e-38
68	0xb1d7eaba	-6.284009e-09
69	0xb198d5cc	-4.448088e-09
70	0x31ac8b3f	5.0216893e-09
71	0xb24fb69c	-1.2090506e-08
72	0x8198ecb1	-5.6175617e-38
73	0x28d7f3b2	2.3975481e-14
74	0x8106452a	-2.4661536e-38
75	0xb35f55c2	-5.199923e-08
76	0x2642d571	6.759654e-16
77	0x26ce63ba	1.4321152e-15
78	0x26853188	9.242154e-16
79	0xa7577b01	-2.9903924e-15
80	0x3d05f742	0.032706507
81	0xbc25329b	-0.010082866
82	0x3cf2c100	0.029633045
83	0x3d0edfe5	0.03488149
84	0xbd8c002b	-0.068359695
85	0xbd7192f1	-0.058978025
86	0xbd4b16e8	-0.049582392
87	0x3dad8f89	0.08474643
88	0xbcf817bb	-0.030284753
89	0xbca516d1	-0.020152481
90	0xbc3584a9	-0.011078992
91	0x3d787d60	0.060666442
92	0x00a2b869	1.4943504e-38
93	0x01b02130	6.469981e-38
94	0x00a439e5	1.508179e-38
95	0x018911a3	5.035116e-38
96	0x3909fe7a	0.00013160138
97	0xb8bdb9d5	-9.046836e-05
98	0x37003258	7.641116e-06
99	0x3a662b4c	0.00087802554
100	0x28eb3298	2.6112183e-14
101	0xa9d10a9c	-9.283305e-14
102	0xaa3ab63a	-1.6583341e-13
103	0xb8158e35	-3.565681e-05
104	0x302890bb	6.132372e-10
105	0x3079464c	9.068557e-10
106	0x30419106	7.041908e-10
107	0xb194fd3a	-4.3361554e-09
108	0x016c49c2	4.3399273e-38
109	0x015de842	4.0757926e-38
110	0x810aecc8	-2.551648e-38
111	0x014f5756	3.8082556e-38
112	0x0fe75fdf	2.2815287e-29
113	0x1b9ea918	2.6248182e-22
114	0x8f16f38e	-7.442478e-30
115	0xb81aaec8	-3.687924e-05
116	0xb2408002	-1.12049765e-08
117	0x3203bc86	7.668069e-09
118	0xb18891c2	-3.9746917e-09
119	0xb3a037f7	-7.4607605e-08
120	0x38002b6d	3.055802e-05
121	0x37c831f0	2.3865112e-05
122	0x37c6843a	2.3665012e-05
123	0xb9ab11eb	-0.00032629012
124	0x3d2622bb	0.040560465
125	0x3c374e78	0.011188142
126	0x3c685bee	0.014182074
127	0xbc508089	-0.012725958
128	0x90707cf0	-4.7427903e-29
129	0x143014cb	8.88983e-27
130	0x1302c678	1.650616e-27
131	0xa628267d	-5.833887e-16
132	0x336041e6	5.2214e-08
133	0x33b10f62	8.245003e-08
134	0x3394e1d1	6.932863e-08
135	0xb4c64cdd	-3.69363e-07
136	0xbd918c9e	-0.07106899
137	0xbd7edf61	-0.06222475
138	0xbd5980c0	-0.0531013
139	0x3db1905d	0.08670113
140	0xbd9d362e	-0.076763496
141	0xbd8ed824	-0.06974819
142	0xbd798d46	-0.060925744
143	0x3dcad8f2	0.0990466
144	0x3cfc4837	0.030796153
145	0x3d15cbba	0.036571242
146	0x3d0c9c66	0.03432884
147	0x3d18424c	0.0371726
148	0xb42dcc80	-1.6186277e-07
149	0xb4eab86f	-4.372009e-07
150	0xb436fd99	-1.7042329e-07
151	0xb5b0f776	-1.3185042e-06
152	0x31243075	2.3892686e-09
153	0x30d25e52	1.5306318e-09
154	0x2d4722c0	1.1319556e-11
155	0xb2a8fc85	-1.9672607e-08
156	0xbd18676d	-0.03720801
157	0xbcd10243	-0.025513774
158	0xbc83fef8	-0.01611279
159	0x3d86a492	0.06574358
160	0x02b101f3	2.6008931e-37
161	0x158372f0	5.309182e-26
162	0x048ad650	3.264046e-36
163	0xb31854b7	-3.5467306e-08
164	0xbd6bc920	-0.057564855
165	0xbd412263	-0.047151934
166	0xbd1bc509	-0.038029704
167	0x3e3af5fa	0.18257895
168	0x35242a38	6.11562e-07
169	0x354ab500	7.5514254e-07
170	0x3524db5a	6.141396e-07
171	0xb6c1ff6b	-5.781583e-06
172	0x80e864b3	-2.1341959e-38
173	0x8050bfad	-7.4156e-39
174	0x001d0a19	2.666852e-39
175	0x80b685ba	-1.6762032e-38
176	0x898fa1cc	-3.457815e-33
177	0x865aecc2	-4.1175185e-35
178	0x088f90aa	8.64051e-34
179	0x0a92177b	1.4068121e-32
180	0xad7f2b5f	-1.4504702e-11
181	0xad4bc4cc	-1.1582912e-11
182	0x2da57934	1.8812153e-11
183	0x2fa84d11	3.061378e-10
184	0xbd35f68e	-0.044424586
185	0xbd00c74f	-0.031440075
186	0xbca915d3	-0.02064029
187	0x3da014cb	0.07816466
188	0xb62dccff	-2.5898332e-06
189	0x34f1a5f8	4.5010506e-07
190	0x35223ae4	6.04354e-07
191	0x3793502a	1.7561095e-05
192	0x340bf6cd	1.303517e-07
193	0x33ac1d22	8.0146734e-08
194	0x3404a0eb	1.2352e-07
195	0xb4c6f45c	-3.705817e-07
196	0x2721d5d1	2.2459148e-15
197	0x3988d9aa	0.00026102114
198	0x3a6b538a	0.0008976987
199	0xbbd63b04	-0.006537797
200	0xbd522bfc	-0.051311478
201	0xbd185447	-0.03718975
202	0xbce24be4	-0.027624078
203	0x3da37b64	0.07982519
204	0xaf341091	-1.637679e-10
205	0xab316da0	-6.303517e-13
206	0x2ea8c9ae	7.675581e-11
207	0xb06dcf05	-8.651429e-10
208	0x92c52e5c	-1.2443876e-27
209	0x9475588d	-1.23868026e-26
210	0x9380a019	-3.246961e-27
211	0x95347702	-3.644459e-26
212	0x8ed9e205	-5.371228e-30
213	0x0ef2b510	5.9831963e-30
214	0x8e9fe49f	-3.941668e-30
215	0xaf3f16ec	-1.7379492e-10
216	0x015a6a3d	4.0116499e-38
217	0x81788ec1	-4.5652827e-38
218	0x80941d5c	-1.3602186e-38
219	0x8116e58e	-2.7715346e-38
220	0xb184b11c	-3.8618406e-09
221	0x308e3d8b	1.0349351e-09
222	0xb0d1a877	-1.5254632e-09
223	0xb2510746	-1.2167055e-08
224	0x38740bef	5.8185247e-05
225	0x3859f69f	5.1966515e-05
226	0x37c9ee0a	2.4071913e-05
227	0xb92d9116	-0.00016552614
228	0x2f3af671	1.7004155e-10
229	0x2f380ae0	1.6738566e-10
230	0x2f883d77	2.478193e-10
231	0xb137c963	-2.674448e-09
232	0x012796b8	3.078119e-38
233	0x00beeb42	1.7533139e-38
234	0x0080d4ec	1.1831325e-38
235	0x81ad8300	-6.373814e-38
236	0x245fd282	4.8533724e-17
237	0xa3afad18	-1.9046846e-17
238	0x240a3ccd	2.997548e-17
239	0x25621aa8	1.9611407e-16
240	0x2f011216	1.1738907e-10
241	0x380ae895	3.3118373e-05
242	0x35876c99	1.008989e-06
243	0xba9eb831	-0.0012109337
244	0xbda451c0	-0.08023405
245	0xbd9856f5	-0.07438461
246	0xbd87c278	-0.06628889
247	0x3ddf005c	0.108887404
248	0xbd4f064a	-0.050543107
249	0xbd212d9a	-0.03935013
250	0xbcebe565	-0.028795907
251	0x3d9c9262	0.07645108
252	0x1e5cd452	1.169061e-20
253	0x9b7d0ef8	-2.0932506e-22
254	0x1e465325	1.0499227e-20
255	0x1e9c59b5	1.6554244e-20

transformer_encoder.layers.1.linear1.bias f4 [2048]
0	0x3dc1d311	0.09464086
1	0xb83b82b1	-4.470599e-05
2	0x33a0a785	7.481052e-08
3	0x3872b219	5.7863163e-05
4	0x3d9cf648	0.07664162
5	0xb313694b	-3.4321868e-08
6	0x810a95d9	-2.5454107e-38
7	0x3e342491	0.17592074
8	0x27b0975a	4.901391e-15
9	0xa7d6c98a	-5.961544e-15
10	0x3b113f78	0.0022163074
11	0xb40c53ef	-1.3069051e-07
12	0x803f486c	-5.811616e-39
13	0x3dacdcbb	0.084405385
14	0xb49bc67c	-2.9015416e-07
15	0xa515976e	-1.2974996e-16
16	0x8183f14b	-4.846804e-38
17	0xb308e7c1	-3.1875746e-08
18	0xb63ee6ea	-2.8446616e-06
19	0xa7e60607	-6.384436e-15
20	0x3d5b0dff	0.053480145
21	0x3db07d64	0.08617666
22	0x3d7ddd5f	0.061978694
23	0x819ec2de	-5.8319654e-38
24	0x3a6a156e	0.0008929585
25	0xb830e762	-4.2177162e-05
26	0xb1e0e237	-6.5449757e-09
27	0x81482fd3	-3.676851e-38
28	0xb7be086a	-2.2653683e-05
29	0xb38a73eb	-6.447211e-08
30	0xb9999918	-0.00029296498
31	0x3b1e1a95	0.002412473
32	0xae0a0e59	-3.139031e-11
33	0xb50a261c	-5.146446e-07
34	0x3db2853b	0.08716818
35	0x3dce701f	0.10079979
36	0x3d3ceaaf	0.04612225
37	0xb5d41d6a	-1.5803791e-06
38	0xb2b89de0	-2.1492212e-08
39	0x3d86d727	0.06584006
40	0xb36b9dda	-5.4858766e-08
41	0x3e3d8ece	0.18511507
42	0xb6e19e69	-6.723964e-06
43	0x945a9cfd	-1.1037148e-26
44	0x89cf6727	-4.993044e-33
45	0xafa09b57	-2.9214206e-10
46	0x3d9facb8	0.07796615
47	0x37a86c3c	2.0077561e-05
48	0xb5210100	-5.997863e-07
49	0xb9825d5e	-0.00024865096
50	0x3da1143c	0.078651875
51	0xb086e7bc	-9.815646e-10
52	0x15349297	3.646635e-26
53	0xb125a1e7	-2.410269e-09
54	0x8075a9fb	-1.080573e-38
55	0xb2642218	-1.3279099e-08
56	0xba024de6	-0.0004970714
57	0xb10bcc35	-2.034324e-09
58	0x819490b4	-5.457425e-38
59	0x25523aab	1.8234474e-16
60	0x3a42e0dc	0.00074340194
61	0x3de57590	0.11204064
62	0x3d9f845c	0.077889174
63	0x1ecd79eb	2.1755643e-20
64	0xba9e3b0a	-0.0012072038
65	0xb89458c4	-7.073724e-05
66	0x252c0708	1.4921004e-16
67	0x3da4736a	0.08029826
68	0x3dac9986	0.0842772
69	0xafd8deb4	-3.944841e-10
70	0xb1a76ccc	-4.8727085e-09
71	0xb4f27aef	-4.5165459e-07
72	0x099aed9d	3.7297602e-33
73	0xb0247a6d	-5.983683e-10
74	0xa84323c9	-1.0832434e-14
75	0xaec80284	-9.095394e-11
76	0x8186986a	-4.944253e-38
77	0xba68ebac	-0.00088852155
78	0xb52acd5b	-6.3628767e-07
79	0xb2955cac	-1.7388025e-08
80	0xb7dd8268	-2.6405978e-05
81	0xbc6ddf4e	-0.014518572
82	0x3b441024	0.0029916847
83	0xb5776c88	-9.2172604e-07
84	0x3aca6e82	0.0015444311
85	0xa633310c	-6.216957e-16
86	0x3da7ba4d	0.08189831
87	0xb06326cf	-8.263727e-10
88	0xb0596243	-7.908378e-10
89	0xa1e00db9	-1.5182463e-18
90	0x8001621b	-1.27029e-40
91	0x817d7df2	-4.6559122e-38
92	0xad6af55c	-1.3355841e-11
93	0xb090850d	-1.0515194e-09
94	0x815e7b7e	-4.0863562e-38
95	0xb42c73a1	-1.6060814e-07
96	0xa972d43a	-5.391887e-14
97	0xb642538a	-2.8956879e-06
98	0xa806ed15	-7.489903e-15
99	0x3ddb2eee	0.107023105
100	0xaeb9efca	-8.455421e-11
101	0x3e3dbecf	0.18529819
102	0x3d7ecb9a	0.06220589
103	0xab8f0633	-1.0162482e-12
104	0xaac1de39	-3.4437885e-13
105	0xba113f6c	-0.00055407616
106	0x3db909a3	0.09035041
107	0x3d878c00	0.066185
108	0xb533dfad	-6.700819e-07
109	0x3dbbd287	0.09171014
110	0x3dc86282	0.09784414
111	0x369ec9eb	4.7322733e-06
112	0x80600b40	-8.820243e-39
113	0xb20e56dc	-8.285237e-09
114	0x3e4c4e25	0.19951685
115	0x9e919814	-1.541537e-20
116	0x3c615b31	0.013754652
117	0xa705b535	-1.855569e-15
118	0x3de25fb3	0.110534094
119	0x259b93c0	2.6988333e-16
120	0xa9010301	-2.864636e-14
121	0xb5326140	-6.6451685e-07
122	0x80c427a8	-1.8013983e-38
123	0xb4977af7	-2.821541e-07
124	0x958c97df	-5.678516e-26
125	0xa8b8db2e	-2.0523158e-14
126	0xadbea986	-2.1675783e-11
127	0x27308c7d	2.4501065e-15
128	0x80cfade7	-1.9072332e-38
129	0xa9730fb4	-5.397046e-14
130	0xbb488db2	-0.0030602035
131	0xb21e19c7	-9.2026715e-09
132	0xabbe49ca	-1.3520793e-12
133	0xadcb58f1	-2.3117926e-11
134	0xb4277a8f	-1.5597674e-07
135	0xbc65ef1f	-0.014034062
136	0xb7182286	-9.067944e-06
137	0xbc097248	-0.008389063
138	0x8133d787	-3.303174e-38
139	0x957c5411	-5.095731e-26
140	0x35fc530b	1.8799632e-06
141	0xb2dcb27c	-2.5692536e-08
142	0x3da88bc5	0.08229784
143	0x25331937	1.5534318e-16
144	0xb9dc34cc	-0.00042001007
145	0x2406ec40	2.925673e-17
146	0x3d84a9b9	0.064776845
147	0x3a948812	0.0011332056
148	0xb8160c3f	-3.5774192e-05
149	0xb4da2aaa	-4.0636706e-07
150	0x3d9b07d0	0.075698495
151	0x3ccce246	0.02501024
152	0xb576ef64	-9.19905e-07
153	0xb23a8c13	-1.0858474e-08
154	0x2c09a456	1.9560096e-12
155	0x3da543e3	0.08069589
156	0xb51a6fe8	-5.7532316e-07
157	0xb482023d	-2.4216016e-07
158	0x3e097ae0	0.1342578
159	0x3c923b3f	0.017850516
160	0x818233f2	-4.7828996e-38
161	0x3da6b01b	0.08139058
162	0x3d5eea3e	0.05442261
163	0xba5d76d9	-0.00084481906
164	0xa5dc265c	-3.818991e-16
165	0xb5b1bfca	-1.3243346e-06
166	0xb2175119	-8.807796e-09
167	0x1f034e94	2.7805327e-20
168	0xb2a53787	-1.9233779e-08
169	0x897a6897	-3.0141833e-33
170	0x3db59ee0	0.088681936
171	0xaf5e15b2	-2.019849e-10
172	0xbc8ec18d	-0.017426277
173	0xb3a7e38c	-7.817934e-08
174	0x3dc12e3b	0.09432646
175	0x3d3c7b8d	0.046016265
176	0x96a6fe94	-2.6979408e-25
177	0x3d4b057f	0.04956579
178	0xa8ad126c	-1.9214848e-14
179	0x3dca3136	0.098726675
180	0x815eb02b	-4.0901355e-38
181	0xb88c2c91	-6.684021e-05
182	0xba4e73fd	-0.000787556
183	0x23f65d0a	2.6710777e-17
184	0xad8771d5	-1.5398275e-11
185	0x3ca2ff0f	0.019897012
186	0xb33a9b63	-4.3447823e-08
187	0xb08dd5d6	-1.0319876e-09
188	0x3beea0ae	0.007282338
189	0x81870d62	-4.961037e-38
190	0x3db2f467	0.08738022
191	0x3d1584ba	0.03650353
192	0x242029fd	3.4730035e-17
193	0x3dbb8656	0.09156482
194	0xbaad9476	-0.0013243097
195	0x815d0e82	-4.0601698e-38
196	0xba9d568c	-0.0012003942
197	0x1cf155a6	1.5970182e-21
198	0x3b8fb121	0.004385129
199	0xaef1efa1	-1.1001978e-10
200	0xb3fc9d46	-1.1763272e-07
201	0xad0c98a5	-7.9919725e-12
202	0xa9bd22d0	-8.399325e-14
203	0xb235125f	-1.0539764e-08
204	0xa899133e	-1.6994757e-14
205	0x32b1e124	2.0707894e-08
206	0xb17d07e2	-3.6820826e-09
207	0xa6901b7a	-9.999455e-16
208	0x3d4a7720	0.049430013
209	0xb3492db1	-4.6840515e-08
210	0x8164b484	-4.20065e-38
211	0x3493b3cc	2.7511703e-07
212	0x3e5b084e	0.21389887
213	0x3c3c6a17	0.011499903
214	0x3b2e48f2	0.0026593772
215	0x9c51a750	-6.9368546e-22
216	0x990c1bee	-7.243471e-24
217	0xac5598cf	-3.0353946e-12
218	0xb76b09af	-1.4009346e-05
219	0x3d59687a	0.053078152
220	0xba898828	-0.0010492848
221	0xace23013	-6.4286436e-12
222	0xb9569549	-0.00020464243
223	0xb2a7c281	-1.9529809e-08
224	0x31970ea4	4.396343e-09
225	0xb4233842	-1.5201024e-07
226	0x3d0f580d	0.03499608
227	0x3b478eea	0.0030450174
228	0x20c53e48	3.3414312e-19
229	0xb45cda4b	-2.0568511e-07
230	0xa5be2def	-3.2990872e-16
231	0x8160ae12	-4.1267192e-38
232	0xb57c1ded	-9.3920863e-07
233	0xb9712dc9	-0.00023000607
234	0xad5d5f7c	-1.2583597e-11
235	0x80954b9e	-1.3710615e-38
236	0xad2fbfd0	-9.990189e-12
237	0xaddfbe5b	-2.54367e-11
238	0xb9c723bf	-0.0003798287
239	0xb8adebda	-8.2932136e-05
240	0xb1ba1e75	-5.416775e-09
241	0xbc50c152	-0.012741404
242	0xbb244244	-0.0025063911
243	0xa1228a03	-5.507039e-19
244	0xb0d660ca	-1.5598058e-09
245	0xaf869190	-2.4477886e-10
246	0xbc042e3d	-0.008067665
247	0xb2593cf1	-1.2644919e-08
248	0x8148ebd6	-3.6903402e-38
249	0x3d7509fd	0.05982398
250	0x9c68b2f8	-7.6993673e-22
251	0xa9bff595	-8.5247056e-14
252	0xb6fa32fc	-7.456516e-06
253	0x3e367a9e	0.17820212
254	0xb2a1b179	-1.8823572e-08
255	0x3d344c22	0.04401792

transformer_encoder.layers.1.linear2.weight f4 [4, 2048]
0	0xbdc01006	-0.09378056
1	0x3c82098c	0.015873693
2	0x33d8b222	1.0090686e-07
3	0xbad77b8e	-0.001644002
4	0x3da14ca5	0.07875947
5	0xb45243bd	-1.9582417e-07
6	0x814f2bdb	-3.805136e-38
7	0x3e20b149	0.15692629
8	0x26df98ad	1.5515116e-15
9	0xb58dfeec	-1.0579511e-06
10	0x3baed8e0	0.005335912
11	0x9a99cf25	-6.361398e-23
12	0x804e6445	-7.199139e-39
13	0x3d9b14e9	0.07572348
14	0xb4dc41ec	-4.1026158e-07
15	0xa1589284	-7.337756e-19
16	0x81557686	-3.9206958e-38
17	0xb2e744db	-2.6923251e-08
18	0x2ccd1678	5.828945e-12
19	0xa722197f	-2.2495838e-15
20	0x3c27ce73	0.010242092
21	0x3db23ea7	0.08703356
22	0x3d812e31	0.063076384
23	0x01887ed2	5.014049e-38
24	0x3a6ab26c	0.00089529785
25	0x38039205	3.1368825e-05
26	0x303bd00b	6.832585e-10
27	0x0016d231	2.095783e-39
28	0xb9921726	-0.00027864537
29	0xb0842941	-9.615989e-10
30	0x37fbdf2c	3.0025454e-05
31	0xbc5f2ed7	-0.013622007
32	0xab013001	-4.5896625e-13
33	0xb4230785	-1.5183294e-07
34	0x3db66e79	0.0890779
35	0x3dc2b37e	0.09506892
36	0x3d84a3df	0.064765684
37	0xb42a0594	-1.5834513e-07
38	0xaf870c69	-2.4565175e-10
39	0x3d867f7e	0.06567286
40	0xb10294fb	-1.9002175e-09
41	0xbcaebc7d	-0.021330113
42	0x32a82030	1.9572411e-08
43	0x9e389d4e	-9.773409e-21
44	0x08949501	8.942457e-34
45	0xb09af3ed	-1.1274303e-09
46	0x3d8c85df	0.068614714
47	0x37c787f1	2.3785951e-05
48	0xb53abedb	-6.956813e-07
49	0x3b88861c	0.0041663777
50	0x3d9b25d3	0.07575574
51	0xaea9c777	-7.720662e-11
52	0x936051c1	-2.8313083e-27
53	0xb44fdd7e	-1.9358956e-07
54	0x81a24d52	-5.962035e-38
55	0xb131c0e7	-2.5866542e-09
56	0xb8460f5c	-4.7221183e-05
57	0x2fd51811	3.8761575e-10
58	0x80347b99	-4.819784e-39
59	0x24e1a599	9.785873e-17
60	0xbcfd1c0b	-0.030897161
61	0x3dcdea61	0.1005447
62	0x3d9de36e	0.077093944
63	0x1ee777d3	2.4507634e-20
64	0x3b381e79	0.0028094335
65	0xb4e0116b	-4.1735925e-07
66	0x25433889	1.6932709e-16
67	0x3da009a1	0.078143366
68	0x3dadc269	0.084843464
69	0xaf832e8c	-2.3861835e-10
70	0x31c11190	5.619036e-09
71	0xb5b72476	-1.3645174e-06
72	0x09bfbd4a	4.6159584e-33
73	0x2f4c9b35	1.8608833e-10
74	0xafb059b5	-3.2077954e-10
75	0xaf220067	-1.4733957e-10
76	0x00d52b19	1.9576421e-38
77	0xba9cea51	-0.0011971687
78	0xb49a41a9	-2.873251e-07
79	0x316768bc	3.3674459e-09
80	0xb5c1f493	-1.4450801e-06
81	0xbd0319c8	-0.03200701
82	0x3bbd170f	0.005770571
83	0x341adf3e	1.4423583e-07
84	0x3aa25006	0.0012383468
85	0xac0f7671	-2.038727e-12
86	0x3da22338	0.07916874
87	0xadd57eb1	-2.4271559e-11
88	0xaf015eb6	-1.176613e-10
89	0xa0b4aef7	-3.0608968e-19
90	0x80c5ab7d	-1.8153111e-38
91	0x019858d0	5.596342e-38
92	0xac9e904e	-4.506651e-12
93	0xaeb4b032	-8.216751e-11
94	0x004ce2f4	7.060913e-39
95	0x03d235c4	1.2355035e-36
96	0x30468ef7	7.2235146e-10
97	0xb301361d	-3.008437e-08
98	0xa862f149	-1.25978406e-14
99	0x3dd07b0a	0.10179718
100	0xac1bcb74	-2.2139764e-12
101	0xbbe289d8	-0.006913405
102	0x3d7f6b82	0.062358387
103	0xae1870e1	-3.4661055e-11
104	0xa5581125	-1.8740822e-16
105	0xb8345892	-4.299783e-05
106	0x3db87012	0.09005751
107	0x3d8330eb	0.06405815
108	0x31c801a8	5.8209544e-09
109	0x3db78020	0.08959985
110	0x3dc21abd	0.09477756
111	0x3580094a	9.539447e-07
112	0x019f1252	5.8433664e-38
113	0xb083e782	-9.597303e-10
114	0xbcdc0429	-0.026857452
115	0xa823543d	-9.066584e-15
116	0x3c384336	0.011246493
117	0x2d6430c8	1.2971131e-11
118	0x3dcdf900	0.100572586
119	0x25af0da5	3.0366907e-16
120	0xae08030f	-3.0925536e-11
121	0x2ff556ba	4.4626863e-10
122	0x00b8ac9f	1.6959656e-38
123	0xb147b3b0	-2.9060452e-09
124	0x9c48a51c	-6.638785e-22
125	0xae4c5869	-4.6462754e-11
126	0xae5589fe	-4.8553155e-11
127	0xa7302e52	-2.4450017e-15
128	0x00bd550a	1.7387415e-38
129	0x9c76afb1	-8.162165e-22
130	0xba8d42fc	-0.0010777409
131	0x2cf30110	6.9065934e-12
132	0x1713e542	4.7787626e-25
133	0x19929bb8	1.515894e-23
134	0xb3b43db9	-8.3931305e-08
135	0xbc8554e6	-0.016275834
136	0x345279fc	1.9602152e-07
137	0xbd07b76e	-0.033133917
138	0x819e9a43	-5.826139e-38
139	0x13c4dde6	4.9696165e-27
140	0x362e06ca	2.5931972e-06
141	0xb0d6f662	-1.5640576e-09
142	0x3daa52e9	0.08316595
143	0x240a76e6	3.002469e-17
144	0x3b414b58	0.0029494371
145	0xa270adfe	-3.2618176e-18
146	0xbdae544d	-0.08512173
147	0x3b0144d1	0.0019724856
148	0xbb05bc0f	-0.002040628
149	0xb3889815	-6.360657e-08
150	0x3d950681	0.07276631
151	0x3cc549f6	0.024083119
152	0xb7d725b7	-2.564756e-05
153	0xb499cdd3	-2.8648228e-07
154	0x2d8dc747	1.6118341e-11
155	0xbdae5ba3	-0.08513572
156	0xb3fcfee2	-1.1781027e-07
157	0xb4a6ee8e	-3.109348e-07
158	0x3dfd412e	0.12365948
159	0x3c8d2d2e	0.017233457
160	0x0047202e	6.531864e-39
161	0x3da02684	0.07819846
162	0x3d5e8b29	0.054331932
163	0x366513ea	3.413525e-06
164	0xb19c9801	-4.5574784e-09
165	0x300af06b	5.054576e-10
166	0x30ba5a20	1.3558896e-09
167	0x20d4e73e	3.606722e-19
168	0xb8d37d85	-0.00010084644
169	0xa1d064ce	-1.4121311e-18
170	0x3daddd63	0.08489492
171	0xae072acf	-3.0733468e-11
172	0x3be39f60	0.006946489
173	0xb3b4190c	-8.386459e-08
174	0x3dbfee21	0.09371591
175	0x3d3d3432	0.046192355
176	0xabb93a59	-1.3161235e-12
177	0x3d43a325	0.04776301
178	0xa7992789	-4.2508895e-15
179	0x3db80caf	0.08986794
180	0x00f5e95f	2.2583414e-38
181	0xb94eac29	-0.00019709826
182	0xbb2b16cd	-0.002610612
183	0x240d2e58	3.0613756e-17
184	0xacd4fa11	-6.0531653e-12
185	0xbd1bb602	-0.038015373
186	0xb29d1dd6	-1.8290773e-08
187	0xae69e1f4	-5.3178753e-11
188	0x3c3cb803	0.011518481
189	0x8076c31b	-1.0906579e-38
190	0x3db3013d	0.087404706
191	0x3d1c32a0	0.038134217
192	0x24e4bc25	9.919797e-17
193	0x3db4ebc9	0.08834035
194	0xbb020904	-0.00198418
195	0x000c4db0	1.129895e-39
196	0x3b8ff61c	0.004393352
197	0x1d161156	1.9861297e-21
198	0x395c16b7	0.00020989297
199	0xb2275ded	-9.742036e-09
200	0xb62b984e	-2.5569639e-06
201	0xab3553ec	-6.442058e-13
202	0x298bb502	6.20424e-14
203	0xb1d98d8b	-6.331623e-09
204	0x299bbe99	6.916446e-14
205	0x3695ffab	4.4703097e-06
206	0xb0883028	-9.908989e-10
207	0xb509a6de	-5.12793e-07
208	0x3d4e725f	0.05040204
209	0x306e04e1	8.659083e-10
210	0x8045e485	-6.418627e-39
211	0xb4efb45b	-4.4648445e-07
212	0xbd50ecea	-0.05100719
213	0x3c6326bf	0.013864218
214	0x3b2f4b19	0.0026747643
215	0xb191a69d	-4.238997e-09
216	0x97688d51	-7.514161e-25
217	0xabc75601	-1.4163671e-12
218	0xb84fecee	-4.9573304e-05
219	0x3d4cc27b	0.04999016
220	0xbbf45477	-0.007456358
221	0xb10079a5	-1.8695598e-09
222	0xb8c7b1aa	-9.522152e-05
223	0xb21b5064	-9.040466e-09
224	0x31996f20	4.4655195e-09
225	0xb911dfb5	-0.00013911615
226	0x3d046c99	0.03233013
227	0xba0c3f62	-0.0005350021
228	0x222cd1aa	2.3421342e-18
229	0xb602f762	-1.9515505e-06
230	0x250a4b9a	1.1995207e-16
231	0x00a8cc54	1.5501662e-38
232	0xb58cb842	-1.0484439e-06
233	0xba5b5920	-0.00083674677
234	0xac2bdd3a	-2.4423367e-12
235	0x8144285c	-3.602847e-38
236	0x2b83bebe	9.361051e-13
237	0xaeb38d40	-8.1650686e-11
238	0x3b871797	0.004122685
239	0xb93923c3	-0.00017656297
240	0xafe34142	-4.1337428e-10
241	0x3c23b24e	0.009991242
242	0xbb1846f1	-0.0023235644
243	0xa5e7327e	-4.0106327e-16
244	0x1d92e5e4	3.888358e-21
245	0xb52b6f89	-6.386477e-07
246	0x3a0f4ffb	0.0005466935
247	0xb930a4fe	-0.00016846132
248	0x817303b2	-4.4634702e-38
249	0x3d7a596a	0.06112043
250	0x9cbc7bff	-1.2472849e-21
251	0xab1e0bfc	-5.614951e-13
252	0xb86a4837	-5.5857203e-05
253	0x3e12657b	0.14296524
254	0xb62af290	-2.5473164e-06
255	0x3d34e65a	0.044164993

transformer_encoder.layers.1.linear2.bias f4 [4]
0	0x3ce55fb3	0.027999735
1	0xbd8b9567	-0.068156056
2	0xbd9ae04e	-0.07562314
3	0x3e478b4b	0.1948673

transformer_encoder.layers.1.norm1.weight f4 [4]
0	0x3e1b73f9	0.15180959
1	0x3dc27927	0.09495764
2	0x3b4ef49d	0.0031578906
3	0x3eb7a22a	0.3586591

transformer_encoder.layers.1.norm1.bias f4 [4]
0	0xbc13d3e9	-0.009022691
1	0xbd335126	-0.04377856
2	0xbd7f7b36	-0.062373362
3	0x3e63ee6e	0.22258922

transformer_encoder.layers.1.norm2.weight f4 [4]
0	0x3e87805f	0.26465127
1	0x3e4e1da8	0.201285
2	0x3eff3c21	0.49850562
3	0x3ed7ec7b	0.42172608

transformer_encoder.layers.1.norm2.bias f4 [4]
0	0x3cb9fd4c	0.02270379
1	0x3cf19dbe	0.029494163
2	0xbce7cd1a	-0.028296042
3	0xbdc805b3	-0.09766712
