checkpoints/epoch_18_checkpoint.pth (torch, 954451 bytes, 194 tensors)

transformer_encoder.layers.0.self_attn.in_proj_weight f4 [12, 4]
-1.203886e-38 2.0148521e-38 2.839066e-38 -2.948723e-38 -5.329768e-38 -5.121066e-39 -1.2558386e-38 -1.914953e-39
5.6587913e-38 -5.3730155e-38 3.0534406e-38 -3.7420554e-38 -6.1795603e-38 4.470119e-38 -9.980944e-39 3.3658315e-38
2.6028037e-38 -4.7139153e-38 -2.5984933e-38 2.2403109e-38 -1.7438094e-38 -5.185808e-39 -5.79821e-38 -2.46732e-38
-3.913644e-39 -1.8387003e-38 -1.5233666e-38 1.5800551e-38 -2.5786706e-38 4.9222307e-38 4.336988e-39 -3.777646e-38
0.06414682 -0.09004726 0.028612718 0.1337154 0.07755072 0.1625898 0.19363771 0.40322432
-0.033734947 -0.31814766 -0.22187667 -0.04061843 -0.04640016 0.3206459 0.10453266 -0.46855184
00000000: 7217 8380 e165 db00 ce92 1a01 338b 2081
00000010: 1017 9181 73c3 3780 acbf 8880 1cda 1480
00000020: 050c 9a01 7444 9281 c03e 2601 a4bc 4b81
00000030: 4039 a881 5e60 7301 d0ae 6c80 d840 3701
00000040: cab5 0d01 3253 8081 b679 0d81 c1f2 f300
00000050: 50e2 bd80 ec77 3880 a0d7 9d81 6c55 0681
00000060: a69d 2a80 7c37 c880 43e1 a580 820d ac00
00000070: 6c65 0c81 f1fe 8501 c239 2f00 b3ac 4d81
00000080: 685f 833d b36a b8bd 3865 ea3c b1ec 083e
00000090: e9d2 9e3d f17d 263e f748 463e 6b73 ce3e
000000a0: a82d 0abd 40e4 a2be a333 63be 835f 26bd
000000b0: 180e 3ebd b32b a43e 3815 d63d 07e6 efbe

transformer_encoder.layers.0.self_attn.in_proj_bias f4 [12]
0.0 0.0 0.0 0.0 0.0 0.0 0.0 0.0
0.062702246 0.008823408 -0.0037709852 0.02292837
00000000: 0000 0000 0000 0000 0000 0000 0000 0000
00000010: 0000 0000 0000 0000 0000 0000 0000 0000
00000020: 096a 803d 0e90 103c a222 77bb 47d4 bb3c

transformer_encoder.layers.0.self_attn.out_proj.weight f4 [4, 4]
-0.14120096 -0.049862 0.17361341 -0.19563752 -0.17833771 -0.2883403 -0.2722893 0.07587531
0.21645917 -0.016251232 -0.24343787 0.43437418 0.22335596 -0.061933506 0.4338734 0.33769813
00000000: fc96 10be 193c 4cbd b7c7 313e 3455 48be
00000010: 299e 36be 57a1 93be 8169 8bbe 8464 9b3d
00000020: 79a7 5d3e 4e21 85bc c747 79be 4b66 de3e
00000030: 6db7 643e fdad 7dbd a724 de3e c5e6 ac3e

transformer_encoder.layers.0.self_attn.out_proj.bias f4 [4]
-0.035469785 -0.06664386 0.010018576 0.0032926695
00000000: c448 11bd 937c 88bd f424 243c d4c9 573b

transformer_encoder.layers.0.linear1.weight f4 [2048, 4]
0.0067582014 -0.035798177 -0.035422042 0.04588746 0.005798928 -0.020835795 -0.03179586 0.049291287
-0.0027864233 0.0072353706 0.0070053795 -0.017457394 0.035132274 -0.034879968 -0.12570617 0.08954726
0.0009350621 0.034013618 -0.017108401 0.11438665 -4.481042e-05 0.009568958 0.014161697 0.028880782
-1.1818261e-06 0.0048258286 -0.002647004 0.008414877 0.0002019605 0.0017893828 -0.0011754149 -0.0006399339
-0.0044666454 -0.012010461 0.05669907 -0.013645934 -0.014889017 -0.08339498 0.14116085 -0.03255493
-0.0046409806 0.014232716 0.017684834 -0.022285251 0.002650405 0.0042439396 0.0133820595 -0.0150834285
0.0022227548 -0.005388223 -0.01644295 0.017390061 9.3347135e-06 -2.9073475e-05 -7.5809534e-05 5.5188255e-05
-0.0023916082 -0.002056372 -0.0023939281 -0.04938846 -1.6624821e-07 0.0061616236 0.0011370091 -0.0014022728
0.0153191425 -0.0021076135 -0.09678562 0.06212266 -0.0065949103 0.009194468 0.03031037 -0.010888358
0.00054117566 0.0007756985 0.008030709 -0.010816124 -9.091684e-05 -0.00019692666 0.00032269477 -0.004853357
8.2577735e-06 0.0013304153 -0.00061937544 0.00067593495 0.021251878 -0.017515412 -0.10443734 0.06951635
-3.0779596e-05 0.0005162486 5.9671376e-05 -0.0008849217 0.031503167 -0.030244378 -0.12633063 0.080813855
0.003459313 -0.0075392067 -0.015527475 0.01651359 -0.0012464495 -0.00043131894 0.0041600573 -0.00079565065
-0.0029822446 -0.0027292573 0.019588234 -0.0032473598 -0.0070968536 0.026401216 0.01007578 0.019999359
-0.022709092 0.008048504 0.08504999 -0.005090137 0.009726778 -0.03465113 -0.055590663 0.06937053
-0.010068043 0.020310294 0.036385156 -0.010143237 -0.0074785333 0.03457676 0.034484502 -0.029145738
-0.004765845 0.0012314962 0.0123091005 -0.023829112 -0.009649446 0.0026808141 0.034710173 -0.008623366
0.019831564 -0.051200926 -0.058407765 0.09478023 -1.9490763e-08 0.00048227402 0.00027101763 0.0006446592
-0.007346828 0.009407485 0.0155341225 -0.029691963 1.8562026e-06 9.000236e-05 -9.043017e-05 0.0003097294
-0.031010337 -0.05304212 0.11409918 -0.06265308 -0.006865843 0.011067836 0.031188589 -0.0142025575
-0.06482507 -0.010060198 0.07073194 0.0077143623 -0.007197035 0.0023672753 0.026531355 -0.016181828
-0.0035297882 0.028484836 0.03187109 0.014163906 -0.016229311 0.057453044 0.10081006 0.04023437
-0.013908106 -0.020444497 0.08038393 -0.03819684 -0.018888852 0.06075177 0.09617997 0.010149685
-0.0023592436 0.016212376 0.019931523 0.010576593 -6.297518e-05 0.0044770692 0.031994257 -0.012985026
-7.536349e-07 0.0016006188 0.0011706644 -0.0010454499 0.01468141 -0.022172034 -0.03341678 0.03305126
-0.04855659 -0.28324923 0.22178853 0.015203382 0.013718697 -0.044104733 -0.077485956 0.07247443
-0.00051221496 0.00085578335 0.0023192274 -0.0016928192 0.052313928 0.05304189 -0.015607727 -0.102267325
-2.2361717e-06 0.004469854 -0.0013495863 0.00028470758 -0.0038902347 0.0037254363 0.01186848 -0.0022881387
-0.006423574 0.016641637 0.03296893 0.04743427 -0.09664213 -0.1406077 0.27029464 0.104989946
-0.0006775535 0.010612383 0.009476314 -0.007362077 -0.00056247506 0.0010276379 0.0055449717 -0.0031009861
-0.00010272978 0.000282899 0.0007360128 -0.00062732684 0.00011539864 0.0006672062 0.00018236876 0.0003122612
-0.011846546 -0.014204267 0.05663841 -0.046317812 -0.005682452 0.0567417 0.036346596 0.022940652
00000000: e773 dd3b 1ca1 12bd b416 11bd 7df4 3b3d
00000010: ef04 be3b d4af aabc 603c 02bd a9e5 493d
00000020: 6d9c 36bb b016 ed3b 628d e53b cf02 8fbc
00000030: dce6 0f3d 4cde 0ebd 1eb9 00be 8e64 b73d
00000040: f51e 753a dd51 0b3d eb26 8cbc 8c43 ea3d
00000050: d2f2 3bb8 1ec7 1c3c 7606 683c 6497 ec3c
00000060: 3c9f 9eb5 fc21 9e3b 5c79 2dbb 8dde 093c
00000070: 5cc5 5339 b989 ea3a 6110 9aba 3dc1 27ba
00000080: f05c 92bb 86c7 44bc 493d 683d 3293 5fbc
00000090: 10f1 73bc fdca aabd 788c 103e 5158 05bd
000000a0: 5e13 98bb 5630 693c c9df 903c 8f8f b6bc
000000b0: 6bb2 2d3b bf10 8b3b 6d40 5b3c 7c20 77bc
000000c0: a3ab 113b b18f b0bb 5eb3 86bc 9a75 8e3c
000000d0: 4a9c 1c37 d0e2 f3b7 effb 9eb8 f079 6738
000000e0: 87bc 1cbb 32c4 06bb 73e3 1cbb 8e4b 4abd
000000f0: f681 32b4 72e7 c93b b207 953a 78cc b7ba
00000100: 24fd 7a3c e31f 0abb 8a37 c6bd 5574 7e3d
00000110: 1e1a d8bb 65a4 163c 744d f83c 1565 32bc
00000120: afdd 0d3a 3f58 4b3a 3c93 033c 1d36 31bc
00000130: 9baa beb8 197e 4eb9 5c2f a939 e908 9fbb
00000140: de8a 0a37 5461 ae3a 955d 22ba 3a31 313a
00000150: 6b18 ae3c 7b7c 8fbc 3ee3 d5bd 975e 8e3d
00000160: 5719 01b8 db54 073a a747 7a38 17fa 67ba
00000170: 7709 013d 0fc3 f7bc d15c 01be bc81 a53d
00000180: a4b5 623b 730b f7bb f366 7ebc 8247 873c
00000190: e85f a3ba a622 e2b9 1751 883b 3693 50ba
000001a0: c371 43bb 57dd 32bb 8177 a03c a8d1 54bb
000001b0: b98c e8bb 5d47 d83c e214 253c b2d5 a33c
000001c0: 6b08 babc dfdd 033c b02e ae3d 2acb a6bb
000001d0: 105d 1f3c 58ee 0dbd 09b3 63bd 2312 8e3d
000001e0: 6ff4 24bc c661 a63c 9a08 153d d22f 26bc
000001f0: 7c0e f5bb 5ca0 0d3d 9f3f 0d3d 0bc3 eebc
00000200: ce2a 9cbb 286a a13a 1cac 493c 4535 c3bc
00000210: b618 1ebc 99b0 2f3b 412c 0e3d 0549 0dbc
00000220: ce75 a23c 10b8 51bd fb3c 6fbd 231c c23d
00000230: a46c a7b2 b9d9 fc39 5f17 8e39 59fe 283a
00000240: a9bd f0bb da21 1a3c d582 7e3c 8f3c f3bc
00000250: a322 f935 a6bf bc38 54a5 bdb8 2d63 a239
00000260: 6409 febc b242 59bd d5ac e93d 4250 80bd
00000270: defa e0bb de55 353c 367f ff3c d8b1 68bc
00000280: 02c3 84bd 87d3 24bc e8db 903d c3c8 fc3b
00000290: 1bd5 ebbb 4a24 1b3b 4958 d93c c18f 84bc
000002a0: 0554 67bb 0859 e93c 438b 023d ba0f 683c
000002b0: 55f3 84bc e253 6b3d 8175 ce3d cbcc 243d
000002c0: d3de 63bc 387b a7bc 54a0 a43d 4a74 1cbd
000002d0: cbbc 9abc d9d6 783d 01fa c43d dd4a 263c
000002e0: 8a9d 1abb d1cf 843c 6f47 a33c 7249 2d3c
000002f0: 8b11 84b8 61b4 923b 690c 033d 26bf 54bc
00000300: 654d 4ab5 dbcb d13a fb70 993a 7a07 89ba
00000310: 4c8a 703c 20a2 b5bc 09e0 08bd c260 073d
00000320: 46e3 46bd 0b06 91be 881c 633e 9b17 793c
00000330: 63c4 603c 2aa7 34bd f5b0 9ebd 796d 943d
00000340: 2a46 06ba a656 603a 2efe 173b 96e1 ddba
00000350: 2147 563d 7442 593d 8db7 7fbc 8871 d1bd
00000360: 2311 16b6 da77 923b 9ae4 b0ba ce44 9539
00000370: 4ff3 7ebb 7326 743b 0374 423c 99f4 15bb
00000380: d87c d2bb 0b54 883c 6e0a 073d 704a 423d
00000390: 4fec c5bd 77fb 0fbe 0f64 8a3e f804 d73d
000003a0: d89d 31ba 8fdf 2d3c 8b42 1b3c 943d f1bb
000003b0: 1073 13ba ceb1 863a 98b2 b53b ea39 4bbb
000003c0: a170 d7b8 1052 9439 fcf0 403a 3173 24ba
000003d0: 2c02 f238 73e7 2e3a 3e3a 3f39 fdb6 a339
000003e0: 0418 42bc 04b9 68bc adfd 673d bfb7 3dbd
000003f0: dd33 babb fc69 683d 2be0 143d 09ee bb3c

transformer_encoder.layers.0.linear1.bias f4 [2048]
0.042705674 0.034910385 -0.028919976 0.06966706 -0.059143066 -0.028414939 -0.020667257 -0.005344497
0.006960831 0.038358953 -0.026583342 -0.026625331 0.010394794 -0.00020415115 9.329426e-05 -0.008941884
0.040709086 -0.03435775 0.0039858986 -0.020448599 -0.0021386673 0.048556667 0.00026711423 0.06534753
0.013692724 -0.00022203685 0.01822791 -0.0208532 0.0903387 0.064693406 -0.023546789 -0.027646877
-0.051127926 -0.05117899 0.07499233 -0.0010553589 -0.026307497 -0.00071815785 0.06877863 -0.035537172
0.04474685 -0.050300013 -0.032937177 0.03964327 0.05957692 0.08711597 -0.03439056 0.0053118356
-0.0041036974 0.032574363 0.13005675 0.079432346 -0.0018352066 -0.009149663 -0.008288437 -0.00977268
-0.053517103 0.1673969 -0.017947514 -0.005382591 -0.00097603997 -0.000715561 0.06992543 -0.019775791
0.06130461 -0.039553095 0.0345295 0.06568738 -0.03294274 -6.927518e-05 -0.003602166 -0.006316666
0.029537205 -2.3940281e-06 0.05763895 -2.9551393e-05 0.0034868736 -0.027870847 0.1748046 -0.021908578
0.003319764 -1.4043701e-07 -0.032128364 -0.039357457 0.15316117 0.080472626 -0.0031797776 -0.0014900826
-3.9468457e-38 0.013335103 0.01494635 0.27117693 0.13641599 0.07299268 -0.02298122 -0.040673118
0.031229837 -0.04735893 0.09744121 -0.04508547 0.00075434864 -0.0014230564 -0.013377873 -0.0037226563
-0.0062501896 0.037505206 -0.014115059 0.09448254 -0.021949252 0.0003801893 -0.0064727818 -0.029980585
0.030699272 -1.2098716e-06 0.061910544 0.058550987 0.05160315 0.00020517549 -0.034985498 -0.003695474
-0.05810551 -0.007415122 -0.05842679 -0.035865135 -4.440208e-05 -0.062062163 -0.009975881 -0.0057483045
0.08909302 -0.04185576 0.012513095 0.02166008 -0.00052948325 0.06429584 -0.009172704 -0.07788577
-0.03440622 0.013031487 0.039827865 -0.00247704 -0.00012561874 0.009268898 0.0075247274 -0.025752017
0.0748354 -0.019834986 -0.00034595278 0.0007255487 -0.015260649 0.005625679 0.019057833 0.004678046
-0.025578007 0.19090444 -0.0012897089 -0.021663122 -0.051397648 0.03403552 -0.005157825 0.06169108
-0.030436657 -0.019598158 0.004918477 -0.0099383 0.0681101 0.13325569 0.08647156 -4.236853e-06
0.024952421 0.014876562 -0.025107296 -0.006536717 -0.0010398313 -0.010558012 -0.047572367 0.02276276
0.0888634 0.014707682 0.009667705 -0.05308427 0.009813479 0.00054704177 -0.020608349 0.046129845
-0.001996287 0.043213572 -0.022225155 -0.0052837753 0.0033651874 0.005243397 -0.013002875 0.010995382
2.8643426e-05 -0.0061593214 0.027592584 -0.014202548 -0.019586425 -0.00013204642 -0.08320772 -0.024502242
0.022125753 -5.9144248e-05 0.043123085 -0.007172061 0.16472505 -0.010553942 -0.0017349812 -0.013912709
9.573664e-07 -0.0069164922 -0.011258181 0.011684351 -0.0006350965 0.056344677 0.00017180057 -0.016054906
-0.040284846 0.073194146 -0.021838907 0.051208172 0.0027649272 0.026761709 0.095397346 -0.027474143
0.01651177 -0.0031878396 -0.040718876 -0.048002243 0.04773842 -0.0002293273 -0.00012472847 -5.21814e-06
-0.0621382 -0.046434544 0.004150912 0.00089390896 0.09705055 -0.046720255 -0.008949073 0.04627414
-0.008549441 0.0130007835 0.004750204 0.00015332612 -0.0010548647 0.019881671 -0.04685837 0.010895197
0.008143834 0.007974029 -0.04602896 -0.018547973 0.036529284 -0.07185016 -0.010338453 0.008763371
00000000: 25ec 2e3d 31fe 0e3d 96e9 ecbc 9bad 8e3d
00000010: 0040 72bd 72c6 e8bc 614e a9bc e420 afbb
00000020: af17 e43b 471e 1d3d 4fc5 d9bc 5e1d dabc
00000030: ed4e 2a3c 6811 56b9 f9a6 c338 fb80 12bc
00000040: 92be 263d b6ba 0cbd 249c 823b d283 a7bc
00000050: e228 0cbb 5be3 463d 770b 8c39 edd4 853d
00000060: 7257 603c 90d2 68b9 b352 953c 55d4 aabc
00000070: 7f03 b93d fa7d 843d 32e5 c0bc b47b e2bc
00000080: 846b 51bd 10a1 51bd 9495 993d f853 8aba
00000090: d282 d7bc c242 3cba cfdb 8c3d 6d8f 11bd
000000a0: 7948 373d 6307 4ebd 22e9 06bd fb60 223d
000000b0: ee06 743d dc69 b23d 1edd 0cbd e80e ae3b
000000c0: 4f78 86bb b26c 053d 992d 053e 6dad a23d
000000d0: 518b f0ba 78e8 15bc 39cc 07bc 971d 20bc
000000e0: c034 5bbd 186a 2b3e aa06 93bc 7260 b0bb
000000f0: efdc 7fba 7c94 3bba 1035 8f3d d700 a2bc
00000100: 8b1a 7b3d 6d02 22bd ce6e 0d3d 1b87 863d
00000110: f7ee 06bd d447 91b8 5112 6cbb 09fc cebb
00000120: 02f8 f13c 17a9 20b6 d216 6c3d 22e5 f7b7
00000130: 0884 643b 6751 e4bc faff 323e 9e79 b3bc
00000140: 6690 593b 08cb 16b4 0899 03bd 4935 21bd
00000150: 48d6 1c3e d5ce a43d d163 50bb e04e c3ba
00000160: 00e3 5681 7a7b 5a3c 89e1 743c b4d7 8a3e
00000170: a2b0 0b3e 307d 953d 1d43 bcbc db98 26bd
00000180: b7d5 ff3c 70fb 41bd 428f c73d 8bab 38bd
00000190: 7bbf 453a d985 baba de2e 5bbc cff7 73bb
000001a0: 64ce ccbb 0f9f 193d d942 67bc 1080 c13d
000001b0: ebce b3bc 2554 c739 a119 d4bb d899 f5bc
000001c0: 0a7d fb3c df62 a2b5 e995 7d3d 29d3 6f3d
000001d0: d35d 533d 6024 5739 f44c 0fbd c42f 72bb
000001e0: 0b00 6ebd 8dfa f2bb ee50 6fbd 52e7 12bd
000001f0: 5f3c 3ab8 e534 7ebd e171 23bc 465c bcbb
00000200: 6776 b63d f270 2bbd b903 4d3c 7b70 b13c
00000210: 05cd 0aba 8aad 833d 1c49 16bc 9382 9fbd
00000220: 89ed 0cbd 0582 553c 8b22 233d d655 22bb
00000230: 86b8 03b9 93dc 173c fd91 f63b e5f5 d2bc
00000240: 4d43 993d fb7c a2bc ff60 b5b9 c032 3e3a
00000250: cd07 7abc 9e57 b83b 2c1f 9c3c 4b4a 993b
00000260: f888 d1bc 747c 433e 730b a9ba dc76 b1bc
00000270: 5786 52bd d468 0b3d f902 a9bb c9af 7c3d
00000280: 4c56 f9bc 518c a0bc 2d2b a13b 40d4 22bc
00000290: 4f7d 8b3d 2e74 083e 0018 b13d 4a2a 8eb6
000002a0: 0569 cc3c d3bc 733c d1ad cdbc f531 d6bb
000002b0: f34a 88ba 83fb 2cbc 3edb 42bd f878 ba3c
000002c0: 04fe b53d 7df8 703c 4b65 1e3c e46e 59bd
000002d0: b7c8 203c 5a67 0f3a d7d2 a8bc a6f2 3c3d
000002e0: 23d4 02bb b700 313d 8711 b6bc 8523 adbb
000002f0: 7a8a 5c3b cdd0 ab3b 030a 55bc fa25 343c
00000300: 4a47 f037 22d4 c9bb d809 e23c ceb1 68bc
00000310: b673 a0bc f175 0ab9 cf68 aabd edb8 c8bc
00000320: 1141 b53c a711 78b8 d5a1 303d 9c03 ebbb
00000330: afad 283e 71ea 2cbc 4f68 e3ba 22f2 63bc
00000340: dc7e 8035 bea3 e2bb 3c74 38bc b86f 3f3c
00000350: 9b7c 26ba adc9 663d 5d25 3439 9485 83bc
00000360: b901 25bd d0e6 953d 82e7 b2bc a9bf 513d
00000370: c833 353b 5f3b db3c af5f c33d 7411 e1bc
00000380: b143 873c 13eb 50bb d6c8 26bd 009e 44bd
00000390: 5d89 433d 9477 70b9 8bc9 02b9 7b17 afb6
000003a0: a084 7ebd 2632 3ebd 6004 883b 3755 6a3a
000003b0: 70c2 c63d bd5d 3fbd 229f 12bc f489 3d3d
000003c0: f412 0cbc 3d01 553c 99a7 9b3b 2bc6 2039
000003d0: 6343 8aba e3de a23c 90ee 3fbd c581 323c
000003e0: b76d 053c 80a5 023c dd88 3cbd ebf1 97bc
000003f0: bb9f 153d 2d26 93bd 9d62 29bc 3e94 0f3c

transformer_encoder.layers.0.linear2.weight f4 [4, 2048]
-0.083329365 -0.06606288 0.0066897 -0.09939781 0.0076326123 -0.0039463234 0.011115575 -0.026907647
-0.018105036 -0.080478914 0.0027799015 -0.016979313 -0.017836252 0.0040122094 0.001259284 0.014407949
-0.034401957 0.018000705 -0.003969946 -0.025816137 -0.0025318377 -0.056432936 -0.0026139324 -0.08562694
-0.009102901 -0.0005464381 0.0098479865 -0.00073961145 0.009364756 -0.088020794 -0.006941227 -0.0053216396
-0.014592316 0.009977047 -0.11628126 0.005920043 0.013676459 0.018382963 -0.059298787 0.0020307114
0.067458846 0.008146319 0.007778185 0.0007403829 -0.015547005 -0.0039494806 -0.01489821 -0.018421365
0.011155604 -0.01930834 -0.2171467 -0.096045904 0.006935012 0.19948518 0.020180717 0.0042301244
-0.0071963025 -0.08729019 0.0007525699 0.002449823 0.0014423969 0.0030632154 -0.009874773 0.0013210749
-0.1046894 4.2736887e-05 0.16861771 -0.047393527 -0.011506194 -1.807455e-05 0.011951055 -4.655216e-05
-0.013939651 9.0518415e-07 -0.08774838 -0.0004947066 -0.0055016885 -0.021743279 -0.09047233 0.0048799827
-0.00045683834 0.0036060675 0.005752192 -0.018059025 -0.076258145 0.0131039545 0.013060169 -0.00026280252
-1.1379597e-38 -0.05298811 -0.04494288 -0.21899676 -0.21838352 -9.922136e-05 -0.020754678 0.0120521765
-0.017130192 0.009714585 -0.032211117 0.008775354 0.0010124116 0.0007820646 -0.0014952982 -0.027218608
-0.044436395 -0.06547717 0.014871742 0.08161462 0.025157427 0.00024138416 0.0124290865 0.015001145
-0.02558798 8.7440516e-05 -0.108663104 -0.06851796 -0.042710863 0.00040111056 -0.014764422 -3.0551394e-06
0.011954401 -0.05191969 0.020372193 0.0014042235 0.0046300064 0.020053841 0.012853616 0.004765968
0.21189013 0.00390906 -0.002716159 -0.015362541 0.00012001949 -0.09593009 -0.0015406955 0.014063362
-0.041097865 -0.007905128 -0.032509215 0.0016409224 0.012803592 0.021459753 -0.021906555 -0.017725596
-0.06248171 0.008197871 0.00022137597 -0.019726098 -0.007576191 -0.002845138 0.0048079495 -0.03568043
0.0169029 -0.1288222 -0.0016902175 -0.009116072 0.004436398 -0.00624447 -0.015230055 -0.06973184
-0.008890487 0.033266477 -0.022926336 -0.016216455 -0.10297292 -0.12287103 -0.11993629 0.00076677796
0.0046018492 -0.005208138 0.015215162 0.0037739587 0.005705985 -0.020542305 0.008688833 -0.071730316
-0.11256927 -0.05866283 -0.028082872 0.0018655261 -0.010412012 0.0041639507 -0.04861985 0.008874035
-0.040017042 -0.09148877 -0.008493845 -0.0005465884 -0.002145576 -0.0027144826 0.009699759 0.0048588137
2.4171914e-06 0.019167792 -0.027715623 0.017078646 0.0038045645 0.0031303938 0.0120685715 -0.0046876916
-0.017262336 0.015328071 -0.093930066 0.0070814253 -0.13494128 0.01163936 0.00018423953 0.0041577285
-4.332923e-07 0.02188347 -0.016735625 -0.022648845 0.024556803 -0.0872911 8.847271e-05 -0.02980452
-0.008916475 -0.028017474 0.009438337 0.0039780224 -0.007263391 -0.018055586 0.11755914 0.012046538
0.0042453995 0.005672075 -0.0075905756 0.0110522 0.1400677 0.0020261044 0.0009863348 0.010071927
0.005423694 0.032706216 0.005558054 0.018767428 -0.07772986 0.0153170535 0.013600415 -0.08806941
0.025599929 -0.039381165 -0.008243317 -1.8915927e-05 0.017547265 -0.014791724 -0.0070991693 -0.019581232
-0.022343617 -0.03278359 0.013893333 0.033162754 -0.06292219 -0.008457015 -0.0004516929 0.0050498457
00000000: 96a8 aabd fa4b 87bd 4535 db3b 1491 cbbd
00000010: fe1a fa3b 2950 81bb 1a1e 363c 6d6d dcbc
00000020: 0351 94bc 21d2 a4bd 022f 363b 3318 8bbc
00000030: 551d 92bc da78 833b 8f0e a53a 510f 6c3c
00000040: 11e9 0cbd 3776 933c 5216 82bb 5d7c d3bc
00000050: 30ed 25bb 3926 67bd 824e 2bbb 2d5d afbd
00000060: 5624 15bc d73e 0fba 7359 213c 7ce2 41ba
00000070: a26e 193c 3f44 b4bd 3b73 e3bb 2661 aebb
00000080: 9c14 6fbc c576 233c df24 eebd ecfc c13b
00000090: 3a13 603c de97 963c 49e3 72bd af15 053b
000000a0: dd27 8a3d 2378 053c 25e0 fe3b 4116 423a
000000b0: deb8 7ebc a56a 81bb 9f17 74bc 67e8 96bc
000000c0: ffc5 363c 862c 9ebc b45b 5ebe b7b3 c4bd
000000d0: 193f e33b d845 4c3e 0852 a53c db9c 8a3b
000000e0: f6ce ebbb 33c5 b2bd 1c48 453a 368d 203b
000000f0: cf0e bd3a 3ac0 483b cdc9 21bc eb27 ad3a
00000100: 6567 d6bd 6240 3338 1faa 2c3e b71f 42bd
00000110: 7a84 3cbc cd9e 97b7 5cce 433c 0041 43b8
00000120: 2263 64bc c8fb 7235 6cb5 b3bd 33af 01ba
00000130: 8247 b4bb f61e b2bc 8f49 b9bd 43e8 9f3b
00000140: ce83 efb9 c653 6c3b e27c bc3b 85f0 93bc
00000150: 3b2d 9cbd f8b1 563c 52fa 553c c2c8 89b9
00000160: b0e9 7b80 0f0a 59bd 0616 38bd b040 60be
00000170: ee9f 5fbe 1015 d0b8 b705 aabc 7e76 453c
00000180: 9e54 8cbc ec29 1f3c ceef 03bd 81c6 0f3c
00000190: e5b2 843a 7803 4d3a e2fd c3ba 8ff9 debc
000001a0: f002 36bd e518 86bd 9ba8 733c 9125 a73d
000001b0: f316 ce3c 111c 7d39 5ea3 4b3c 5dc7 753c
000001c0: e29d d1bc 4560 b738 c38a debd 2553 8cbd
000001d0: 96f1 2ebd 264c d239 79e6 71bc e506 4db6
000001e0: 64dc 433c bea9 54bd 96e3 a63c ec0d b83a
000001f0: 4fb7 973b f447 a43c f997 523c d62b 9c3b
00000200: baf9 583e 9217 803b 9601 32bb 2bb3 7bbc
00000210: f9b2 fb38 ff76 c4bd 2af1 c9ba 046a 663c
00000220: 3c56 28bd 8384 01bc 6228 05bd 3814 d73a
00000230: 28c6 513c 5dcc af3c 6075 b3bc 4535 91bc
00000240: d2ec 7fbd 5d50 063c 2921 6839 a098 a1bc
00000250: b241 f8bb 7f75 3abb 018c 9d3b a425 12bd
00000260: f377 8a3c f7e9 03be 4a8a ddba 945b 15bc
00000270: 345f 913b 699e ccbb 7b87 79bc 91cf 8ebd
00000280: 68a9 11bc 6e42 083d 03d0 bbbc 5fd8 84bc
00000290: 77e3 d2bd cea3 fbbd 28a1 f5bd 9901 493a
000002a0: 1ccb 963b 07a9 aabb 0449 793c 8554 773b
000002b0: 45f9 ba3b 5648 a8bc 9b5b 0e3c 58e7 92bd
000002c0: b88a e6bd 7048 70bd 0d0e e6bc ab84 f43a
000002d0: 2597 2abc c071 883b 9c25 47bd 6764 113c
000002e0: e9e8 23bd 775e bbbd c529 0bbc ed48 0fba
000002f0: cb9c 0cbb 76e5 31bb bdeb 1e3c af36 9f3b
00000300: 0837 2236 c605 9d3c e00b e3bc 84e8 8b3c
00000310: 0056 793b 4b27 4d3b 42bb 453c 359b 99bb
00000320: be69 8dbc 9722 7b3c 685e c0bd 4d0b e83b
00000330: 0c2e 0abe 04b3 3e3c 6c30 4139 8e3d 883b
00000340: 3e9f e8b4 f644 b33c 2619 89bc 128a b9bc
00000350: 592b c93c adc5 b2bd 6d8a b938 9c28 f4bc
00000360: 6816 12bc e784 e5bc 41a3 1a3c 125a 823b
00000370: bd01 eebb 4fe9 93bc d9c2 f03d d85e 453c
00000380: fe1c 8b3b d0dc b93b 5dba f8bb 4914 353c
00000390: e86d 0f3e 64c8 043b e747 813a b904 253c
000003a0: 3eb9 b13b f4f6 053d 5620 b63b 26be 993c
000003b0: d530 9fbd 61f4 7a3c 46d4 5e3c bc5d b4bd
000003c0: f1b6 d13c 254e 21bd fa0e 07bc a5ad 9eb7
000003d0: 48bf 8f3c fd58 72bc 26a0 e8bb d268 a0bc
000003e0: f609 b7bc 1648 06bd dda0 633c abd5 073d
000003f0: 59dd 80bd 4b8f 0abc 32d1 ecb9 2d79 a53b

transformer_encoder.layers.0.linear2.bias f4 [4]
-0.0069349585 -0.0034829485 0.038867828 0.032476157
00000000: a63e e3bb 2e42 64bb df33 1f3d b805 053d

transformer_encoder.layers.0.norm1.weight f4 [4]
0.84891015 0.9837419 0.97563463 0.9401989
00000000: 2d52 593f 82d6 7b3f 31c3 793f e0b0 703f

transformer_encoder.layers.0.norm1.bias f4 [4]
-0.07086065 -0.08364723 0.030306228 0.023876602
00000000: 631f 91bd 3d4f abbd c444 f83c dd98 c33c

transformer_encoder.layers.0.norm2.weight f4 [4]
1.1102927 0.81095594 0.8487195 0.938614
00000000: 121e 8e3f cf9a 4f3f ae45 593f 0249 703f

transformer_encoder.layers.0.norm2.bias f4 [4]
-0.1089194 0.09132466 0.09745981 -0.018276313
00000000: 2211 dfbd 6c08 bb3d 0299 c73d 35b8 95bc

transformer_encoder.layers.1.self_attn.in_proj_weight f4 [12, 4]
-1.203886e-38 2.0148521e-38 2.839066e-38 -2.948723e-38 -5.329768e-38 -5.121066e-39 -1.2558386e-38 -1.914953e-39
5.6587913e-38 -5.3730155e-38 3.0534406e-38 -3.7420554e-38 -6.1795603e-38 4.470119e-38 -9.980944e-39 3.3658315e-38
2.6028037e-38 -4.7139153e-38 -2.5984933e-38 2.2403109e-38 -1.7438094e-38 -5.185808e-39 -5.79821e-38 -2.46732e-38
-3.913644e-39 -1.8387003e-38 -1.5233666e-38 1.5800551e-38 -2.5786706e-38 4.9222307e-38 4.336988e-39 -3.777646e-38
-0.16362649 -0.53560305 -0.11517168 0.33677956 0.1949566 0.332873 0.13527803 0.43404663
0.02193784 -0.392142 -0.22717966 -0.13661171 -0.6017483 0.18251409 0.026061019 -0.19355379
00000000: 7217 8380 e165 db00 ce92 1a01 338b 2081
00000010: 1017 9181 73c3 3780 acbf 8880 1cda 1480
00000020: 050c 9a01 7444 9281 c03e 2601 a4bc 4b81
00000030: 4039 a881 5e60 7301 d0ae 6c80 d840 3701
00000040: cab5 0d01 3253 8081 b679 0d81 c1f2 f300
00000050: 50e2 bd80 ec77 3880 a0d7 9d81 6c55 0681
00000060: a69d 2a80 7c37 c880 43e1 a580 820d ac00
00000070: 6c65 0c81 f1fe 8501 c239 2f00 b3ac 4d81
00000080: b48d 27be 481d 09bf 21df ebbd 5f6e ac3e
00000090: b4a2 473e 546e aa3e 5386 0a3e 5c3b de3e
000000a0: fcb6 b33c d6c6 c8be c9a1 68be f1e3 0bbe
000000b0: 2d0c 1abf f9e4 3a3e eb7d d53c f732 46be

transformer_encoder.layers.1.self_attn.in_proj_bias f4 [12]
0.0 0.0 0.0 0.0 0.0 0.0 0.0 0.0
0.117628135 0.079338215 -0.07261737 0.10405304
00000000: 0000 0000 0000 0000 0000 0000 0000 0000
00000010: 0000 0000 0000 0000 0000 0000 0000 0000
00000020: 05e7 f03d 137c a23d 6ab8 94bd c319 d53d

transformer_encoder.layers.1.self_attn.out_proj.weight f4 [4, 4]
-0.36475617 -0.22896649 -0.0475804 -0.15605533 -0.089562215 -0.05140856 -0.29314223 0.09200456
0.40910658 0.09649362 -0.11092729 0.38800815 0.2461024 -0.06785169 0.42228585 0.2640327
00000000: 52c1 babe 3176 6abe aae3 42bd f8cc 1fbe
00000010: 656c b7bd c891 52bd bd16 96be e36c bc3d
00000020: 6b76 d13e 729e c53d d92d e3bd 01a9 c63e
00000030: 4402 7c3e d4f5 8abd da35 d83e 4b2f 873e

transformer_encoder.layers.1.self_attn.out_proj.bias f4 [4]
-0.099752516 0.09013768 0.09175922 -0.0075876964
00000000: 0c4b ccbd 1b9a b83d 42ec bb3d 36a2 f8bb

transformer_encoder.layers.1.linear1.weight f4 [2048, 4]
-4.866784e-05 -0.0044897273 9.103139e-07 -0.007223977 -0.13190702 -0.08916906 0.065780565 0.2072419
-0.0027621198 -0.057436604 -0.0014686639 -0.0398878 0.41278994 -0.2910681 -0.15667768 0.11014432
0.0357169 -0.003841754 -0.028763922 -0.005126517 0.0035417161 0.0047851694 -0.0006291554 0.0088890055
0.054710057 -0.03301269 -0.00033451652 0.005364483 -0.16674395 -0.16261818 0.054725178 0.26669702
0.036209274 -0.059010953 -0.00072726817 0.0048623276 -0.279359 0.080804825 0.15594393 0.008935349
-0.108746104 -0.03328081 0.07275586 0.124400534 0.00046147403 -5.8094156e-05 -0.00021596412 -9.6883625e-05
-3.1890155e-05 0.026422592 -0.0076623615 -0.030811265 -0.11641883 -0.03546416 0.061604626 0.1349502
-0.000103520964 -0.000799814 -1.1620936e-06 -0.0015113857 0.00021418322 -0.0035999008 1.9795332e-06 -0.0008560927
2.123635e-05 4.8386268e-05 -4.631746e-07 -6.7092415e-06 0.004141319 0.00048393785 -7.245126e-05 -0.0004985711
0.0026662007 0.0007622526 -0.0025286532 -0.0004696102 0.0002749578 4.3769696e-06 0.0002013186 -3.24866e-05
0.017326029 -0.002659304 -0.0015683746 -0.021258993 -7.102228e-10 8.615689e-11 -1.1685468e-09 -3.4205486e-10
0.00054669345 -0.00010410705 0.001747258 -0.0005023484 0.07871907 -0.0165493 -0.022720281 -0.010773929
9.858956e-08 -9.503609e-09 -1.7630181e-07 -1.0261895e-09 0.011579415 -0.015934128 -0.0010066113 -0.010434636
0.02159148 -0.054952588 -0.0009245594 -0.033380926 0.021292837 0.009083636 -0.0019464983 -0.010718237
0.020914437 -0.027163137 -0.027136454 0.02397722 5.7366087e-05 0.0008228888 -5.901844e-07 -0.0024777576
0.046251092 -0.014076479 -0.038117558 0.022899091 -0.034413494 0.009949284 0.03023689 0.05828802
0.036524937 -0.0005502923 -0.01635051 -0.036431637 0.048832078 -0.034949597 -0.011599299 0.0014258263
4.5493733e-05 -0.0031216634 -3.5757641e-06 -0.0008997403 0.0017960255 -0.0019050778 -7.700294e-05 -0.0033656096
8.0221156e-07 1.7473557e-06 -5.358097e-07 -2.6498117e-06 -0.08833186 -0.0426141 0.019476451 0.12676917
0.025980672 -0.39864287 0.0041686073 0.30345398 3.746509e-06 9.105597e-06 -1.5856918e-09 -3.3971907e-07
0.0910192 0.061546084 -0.021063998 -0.11956249 0.023117747 -0.034786474 -0.0013455161 -0.025196724
-0.13778536 -0.014667794 0.05548916 0.20324983 0.01273539 0.009765404 0.008413085 -0.016546546
0.0022566295 -0.04687184 -0.0048311832 -0.049929682 0.017238494 0.013230641 0.0036642398 -0.023779642
-0.08880278 -0.010484626 0.029437771 0.11079026 0.00043498175 1.3779899e-06 0.0003963156 -5.9667578e-05
0.024329508 -0.066180035 -0.005432089 -0.02251339 0.023898289 -0.030177401 0.00025124074 -0.019142203
-0.14238596 -0.13929649 0.0478886 0.23310152 -0.00028512935 -0.0031887954 -3.6785914e-05 -0.00703344
4.9974995e-05 -0.00041901454 -1.7182465e-05 -9.686367e-05 -0.00045153967 0.00023940438 -0.0003881778 -0.013821246
0.053396635 -0.05672428 -0.0026011039 -0.01629556 0.00033839082 0.0007221046 -1.0258116e-05 -0.0006714376
0.05295519 -0.005255338 -0.003726661 0.013734637 0.01858677 0.014315503 -0.0030727799 -0.0050158277
0.01120511 -0.004461851 -0.014607693 -0.045202106 -0.07574501 0.019841205 0.04381307 0.04538737
-3.2188418e-05 0.0003587656 1.3743912e-07 -0.00032695665 -0.008545412 0.019943384 0.021759298 -0.0013150035
-0.09097728 -0.040234778 0.034134872 0.035979908 -0.1298439 -0.053368174 0.04056836 0.21272112
00000000: b220 4cb8 901e 93bb 4b5c 7435 1cb7 ecbb
00000010: a212 07be 459e b6bd f6b7 863d 3837 543e
00000020: ae04 35bb a542 6bbd 2f80 c0ba 6461 23bd
00000030: 3459 d33e e106 95be 1d70 20be 5893 e13d
00000040: e24b 123d f0c5 7bbb 51a2 ebbc 57fc a7bb
00000050: 231c 683b e9cc 9c3b e7ed 24ba 31a3 113c
00000060: a717 603d 5038 07bd 0c62 afb9 8cc8 af3b
00000070: edbe 2abe 6185 26be 8227 603d 838c 883e
00000080: 2d50 143d 78b5 71bd 24a6 3eba 2954 9f3b
00000090: 2508 8fbe 007d a53d c4af 1f3e 9265 123c
000000a0: 47b6 debd 7551 08bd 0601 953d b5c5 fe3d
000000b0: fff1 f139 20aa 73b8 6d74 62b9 002e cbb8
000000c0: cbc1 05b8 3174 d83c 8c14 fbbb e867 fcbc
000000d0: ff6c eebd de42 11bd 2255 7c3d 6330 0a3e
000000e0: 6519 d9b8 9caa 51ba 3bf9 9bb5 b019 c6ba
000000f0: 5f96 6039 50ec 6bbb 1fd8 0436 696b 60ba
00000100: b724 b237 5cf2 4a38 3baa f8b4 f21f e1b6
00000110: e7b3 873b 0ab9 fd39 f9f0 97b8 8ab2 02ba
00000120: 6dbb 2e3b e8d1 473a c3b7 25bb 0436 f6b9
00000130: 3628 9039 e2dd 9236 0d19 5339 3942 08b8
00000140: 51ef 8d3c b847 2ebb eb91 cdba 5727 aebc
00000150: 7d39 43b0 0476 bd2e 969a a0b0 f10b bcaf
00000160: fa4f 0f3a 0c54 dab8 4004 e53a 08b0 03ba
00000170: 7737 a13d 6692 87bc e21f babc 2285 30bc
00000180: 2fb8 d333 5045 23b2 794d 3db4 d509 8db0
00000190: 96b7 3d3c 4a88 82bc 45f0 83ba 09f6 2abc
000001a0: 9ee0 b03c f715 61bd 225e 72ba 70ba 08bd
000001b0: 516e ae3c 88d3 143c a521 ffba 8b9b 2fbc
000001c0: c154 ab3c 3a85 debc 454d debc e06b c43c
000001d0: 5e9c 7038 22b7 573a 2a6d 1eb5 e061 22bb
000001e0: c971 3d3d 08a1 66bc 2821 1cbd e096 bb3c
000001f0: 2af5 0cbd 5202 233c 5bb3 f73c 6bbf 6e3d
00000200: 2c9b 153d 7e41 10ba 81f1 85bc 5739 15bd
00000210: 2504 483d 4f27 0fbd fc0a 3ebc cbe2 ba3a
00000220: 86d0 3e38 d294 4cbb 29f7 6fb6 8ddc 6bba
00000230: 9e68 eb3a ceb3 f9ba a37c a1b8 8f91 5cbb
00000240: 8f57 5735 af86 ea35 90d4 0fb5 6bd3 31b6
00000250: 56e7 b4bd 1f8c 2ebd 148d 9f3c c7cf 013e
00000260: 6bd5 d43c eb1a ccbe d098 883b 525e 9b3e
00000270: 896c 7b36 3ec4 1837 92ef d9b0 a262 b6b4
00000280: 4668 ba3d bf17 7c3d 688e acbc 2edd f4bd
00000290: 6e61 bd3c 437c 0ebd 075c b0ba 5c69 cebc
000002a0: 9b17 0dbe 3051 70bc 9a48 633d b920 503e
000002b0: 19a8 503c 13ff 1f3c 09d7 093c 9f8c 87bc
000002c0: f6e3 133b b0fc 3fbd e74e 9ebb 1183 4cbd
000002d0: be37 8d3c 55c5 583c be23 703b 86cd c2bc
000002e0: 3bde b5bd b5c7 2bbc 7b27 f13c 01e6 e23d
000002f0: 430e e439 5ff3 b835 94c8 cf39 9343 7ab8
00000300: ad4e c73c 6689 87bd aaff b1bb 006e b8bc
00000310: 58c6 c33c 9936 f7bc f6b8 8339 1cd0 9cbc
00000320: a0cd 11be bda3 0ebe d626 443d 2ab2 6e3e
00000330: 6a7d 95b9 1cfb 50bb 934a 1ab8 c578 e6bb
00000340: 3e9c 5138 2eaf dbb9 1023 90b7 4923 cbb8
00000350: a1bc ecb9 a008 7b39 5884 cbb9 8272 62bc
00000360: 6eb6 5a3d b857 68bd 4877 2abb 447e 85bc
00000370: 0c6a b139 9f4b 3d3a 461a 2cb7 6a03 30ba
00000380: 8be7 583d f834 acbb ff3a 74bb 3e07 613c
00000390: 4843 983c 928b 6a3c b160 49bb d05b a4bb
000003a0: a395 373c b834 92bb 1b55 6fbc d825 39bd
000003b0: 3320 9bbd 068a a23c 5575 333d 1be8 393d
000003c0: 0d02 07b8 b418 bc39 fa92 1334 616b abb9
000003d0: 0e02 0cbc 4f60 a33c 8e40 b23c 325c acba
000003e0: 4c52 babd 39cd 24bd 02d1 0b3d ab5f 133d
000003f0: cdf5 04be 9698 5abd 022b 263d 91d3 593e

transformer_encoder.layers.1.linear1.bias f4 [2048]
-0.0041220547 0.15509811 0.018304806 0.17645897 -0.017007813 -0.008901358 -0.06983657 0.18460448
-0.040452547 0.17285614 0.10436539 -0.00020465313 0.011367104 0.101671755 -0.00081415573 -0.0037846477
-1.721934e-05 0.00066214683 -0.0013351424 -6.2941384e-05 -0.0050950837 -9.0864904e-10 -0.0009551904 -0.008061404
-3.4034937e-08 -0.016923271 0.005419555 0.0070326286 0.0063069803 -0.0011285484 0.009969462 0.053828474
-0.0057103597 -0.03607319 -0.0009023233 -0.0044533676 -5.306767e-06 0.07985172 0.28061923 -7.864875e-07
0.07569629 -0.015479682 0.12978634 -0.009162795 0.028950717 -0.010983226 0.058467176 -1.5677411e-05
-0.01617839 -0.027883133 0.17108504 -0.002709154 -0.00016299175 -0.005448509 -0.029179515 -0.0006920291
-0.02183576 -0.006646301 0.016560277 0.052418295 -0.00028745766 0.005509769 0.097818516 0.16094217
-8.7682974e-07 0.025592986 0.15274492 0.1418815 0.01582119 -3.9054506e-05 0.012270162 -0.0044281115
-0.015065883 -0.0010919854 0.00054224604 -0.009182305 0.14679089 -0.0071159005 0.1209258 0.0070784795
0.18132727 2.0121208e-05 0.008006341 -0.0164084 -3.1404528e-07 0.015319539 0.08428932 -0.01853664
0.101702586 0.020082051 -0.00010414547 -3.580855e-05 -1.118606e-05 -0.0018186093 0.12621191 -0.0038852661
0.1252 -0.006172402 -0.0014759669 0.07792272 -6.455839e-05 0.16493823 0.014617224 0.010036171
0.08203318 -0.013723957 0.019375633 0.073058575 0.016441932 0.0011489935 0.02694226 -0.04438218
-0.011173583 -0.017753895 0.14502722 -1.751607e-19 0.01125288 0.035204064 0.0041766646 -0.016646361
-0.008083159 0.13450547 -0.0234458 -0.03325179 -1.03545835e-05 -0.019159801 0.06895254 -0.02593666
-0.00026780655 0.0008620492 -0.0147095565 -0.011933488 -6.217383e-05 0.150025 -0.0014047729 0.1601387
-0.08652343 0.019074522 0.053825654 0.0043805675 -0.0014763278 0.055830907 -0.0013145924 0.1319378
-0.028445663 -0.01434705 0.070095114 0.039992575 0.07680158 0.04804742 -0.009600771 -0.0035882655
-0.001427546 0.06238504 0.01144513 0.0028469134 0.029268885 -8.0008714e-17 0.00083886215 -0.011819859
-0.0022077605 0.00017014606 -0.0042627603 -0.00020530487 -0.0004594496 -0.00036951608 -0.0015529769 -0.008080402
0.0014444464 0.010915611 0.049125895 0.0035399017 -4.385357e-05 -0.0007791171 -0.0038265574 -0.013866496
0.11246591 -0.0072146193 0.090005286 -0.011077288 -0.02390947 0.061178178 -1.9332198e-05 0.00612747
0.14889722 -0.0023513006 0.013005815 -0.005424277 0.0035663897 -1.5664207e-05 0.071144655 0.133927
-0.0074369446 -0.0062555564 -0.003112185 -0.0013197423 -5.7089096e-07 0.023929432 0.044576418 0.06878503
-0.01861644 -0.025682824 -0.032788172 0.15963915 0.008138708 0.15039295 -0.0047684712 0.040384263
-0.021474855 -0.016227214 -0.00020320034 0.0102703525 -0.003293032 -0.0013349234 -3.1400334e-32 0.007889688
-0.0007153652 -0.00036223317 0.00043199144 0.0016798833 0.12598576 0.060536053 0.26868728 0.007905872
-0.0033371309 0.0016870921 -0.008661743 -0.005824837 -1.4992828e-10 -5.6742792e-05 0.06779259 0.0014575314
0.052064117 -0.035803206 0.09182958 0.03053836 -0.0018636766 -0.0045037554 -0.038178124 0.05410825
-0.0063110166 -0.004086014 0.0021435386 -0.0020237474 -0.03001988 -5.5373174e-08 -8.176286e-07 0.12857431
0.032186687 -0.006619128 0.12785251 -0.00039138083 0.07124203 0.054588776 0.027158475 -0.00021357172
00000000: 4d12 87bb 0ad2 1e3e f6f3 953c a9b1 343e
00000010: f853 8bbc 00d7 11bc 7a06 8fbd f508 3d3e
00000020: 92b1 25bd 3301 313e 86bd d53d 2898 56b9
00000030: 173d 3a3c 4839 d03d 116d 55ba da07 78bb
00000040: 4072 90b7 ec93 2d3a f2ff aeba 66ff 83b8
00000050: a9f4 a6bb 7ec4 79b0 be65 7aba fb13 04bc
00000060: cf2d 12b3 aca2 8abc 8696 b13b f771 e63b
00000070: c9aa ce3b cdeb 93ba f456 233c 3f7b 5c3d
00000080: f81d bbbb 7bc1 13bd e489 6cba 8eed 91bb
00000090: c810 b2b6 4c89 a33d 53ad 8f3e 021f 53b5
000000a0: a806 9b3d 7e9e 7dbc b6e6 043e 8c1f 16bc
000000b0: 0e2a ed3c fdf2 33bc 477b 6f3d fc82 83b7
000000c0: 8b88 84bc 2b6b e4bc eb30 2f3e 108c 31bb
000000d0: c4e8 2ab9 6889 b2bb e109 efbc 4969 35ba
000000e0: e8e0 b2bc 37c9 d9bb 6ba9 873c 91b4 563d
000000f0: eab5 96b9 4b8b b43b 1355 c83d 06ce 243e
00000100: 485f 6bb5 62a8 d13c 2a69 1c3e 6249 113e
00000110: 719b 813c 75ce 23b8 ca08 493c b119 91bb
00000120: e5d6 76bc f320 8fba 8425 0e3a 6171 16bc
00000130: 5a50 163e 802c e9bb f2a7 f73d 97f2 e73b
00000140: dbad 393e f7c9 a837 072d 033c e96a 86bc
00000150: 0e9a a8b4 cefe 7a3c e19f ac3d 27da 97bc
00000160: 7249 d03d 1d83 a43c ac68 dab8 2331 16b8
00000170: c3ab 3bb7 675e eeba b23d 013e f39f 7ebb
00000180: 6e34 003e dc41 cabb 3b75 c1ba f295 9f3d
00000190: 8663 87b8 91e5 283e 157d 6f3c c16e 243c
000001a0: 0301 a83d 73da 60bc a6b9 9e3c bc9f 953d
000001b0: 3bb1 863c d399 963a 04b6 dc3c 17ca 35bd
000001c0: 6711 37bc 9e70 91bc 0482 143e 13cb 4ea0
000001d0: 005e 383c 2332 103d 67dc 883b f35d 88bc
000001e0: 3a6f 04bc cdbb 093e 6811 c0bc 0733 08bd
000001f0: 99b8 2db7 04f5 9cbc fd36 8d3d 1e79 d4bc
00000200: 6368 8cb9 24fb 613a 5a00 71bc ad84 43bc
00000210: 5263 82b8 27a0 193e 5b20 b8ba 66fb 233e
00000220: 3233 b1bd 2c42 9c3c 4a78 5c3d dd8a 8f3b
00000230: 5781 c1ba f3ae 643d 674e acba b41a 073e
00000240: e106 e9bc e40f 6bbc 078e 8f3d 41cf 233d
00000250: 264a 9d3d 5fcd 443d 8d4c 1dbc 1b29 6bbb
00000260: 7f1c bbba 7587 7f3d 5b84 3b3c 4893 3a3b
00000270: 4dc5 ef3c cf7c b8a4 16e7 5b3a 15a8 41bc
00000280: 13b0 10bb 3c69 3239 a0ae 8bbb 1b47 57b9
00000290: 48e2 f0b9 9cbb c1b9 428d cbba aa63 04bc
000002a0: 9453 bd3a 64d7 323c 3c38 493d b2fd 673b
000002b0: 6aef 37b8 aa3d 4cba fbc6 7abb 4d30 63bc
000002c0: 8754 e63d 9d68 ecbb b154 b83d 837d 35bc
000002d0: cbdd c3bc f895 7a3d 942b a2b7 f2c8 c83b
000002e0: 8378 183e 4718 1abb 5816 553c 22be b1bb
000002f0: 17ba 693b a166 83b7 4ab4 913d 2924 093e
00000300: 9db1 f3bb 69fb ccbb cdf5 4bbb 34fb acba
00000310: 543f 19b5 a807 c43c c395 363d 2adf 8c3d
00000320: 8181 98bc c964 d2bc e44c 06bd 7278 233e
00000330: 3758 053c 9c00 1a3e d640 9cbb f869 253d
00000340: 09ec afbc efee 84bc 2d12 55b9 fb44 283c
00000350: e9cf 57bb 99f8 aeba 340a 238b c043 013c
00000360: 5987 3bba 1dea bdb9 e97c e239 882f dc3a
00000370: 6902 013e a7f4 773d 6191 893e a187 013c
00000380: c4b3 5abb 6b21 dd3a fce9 0dbc 46de bebb
00000390: 0fd9 24af 1cff 6db8 d7d6 8a3d a30a bf3a
000003a0: 2f41 553d 62a6 12bd 2611 bc3d 952b fa3c
000003b0: 9c46 f4ba 3d94 93bb aa60 1cbd 9da0 5d3d
000003c0: a5cc cebb f8e3 85bb 9c7a 0c3b d9a0 04bb
000003d0: 40ec f5bc 73d3 6db3 027b 5bb5 fca8 033e
000003e0: 30d6 033d 45e5 d8bb c5eb 023e 3f32 cdb9
000003f0: 57e7 913d 7b98 5f3d 737b de3c 39f2 5fb9

transformer_encoder.layers.1.linear2.weight f4 [4, 2048]
0.03172769 -0.017958187 0.03135067 0.13044553 0.00510312 -0.013400545 0.020003451 -0.07762067
0.035618007 0.044235196 0.018652264 9.880961e-09 0.005826494 0.0062201056 0.034571953 0.015840206
-3.8588787e-05 0.025559368 0.0041138856 0.00031094535 0.020172833 -0.0012757098 -0.0005319803 0.06984961
-0.00056132063 0.01676723 0.04868251 0.024690816 -0.026204947 0.027369972 -0.024101388 0.006467077
0.0002667992 -0.011888334 0.020992063 0.02158933 -2.7481821e-05 -0.030297061 0.035245713 0.009018166
-0.07178098 0.04747557 -0.033519827 0.0014976801 -0.015550784 -0.012750921 -0.033018462 -0.002826346
0.03623168 0.003997273 -0.03692295 0.034864698 0.0065807616 4.1878508e-07 0.050416898 0.00802026
0.030084 -0.008523325 0.007043571 0.016272288 0.026089102 0.005223199 -0.008864377 -0.052063685
-3.4126395e-05 0.03768152 0.058637295 -0.042727772 0.018043859 8.3613855e-07 0.027496904 0.0059975437
0.035337266 0.0018815729 0.0017217754 -0.0037078105 -0.019240445 0.01651007 0.0644573 0.020647198
0.0575404 -0.002671226 0.03962205 -0.045434743 3.1675932e-05 0.0247196 -0.046909593 0.003001774
0.14514531 0.013838284 -0.008528563 0.004053153 0.0011912805 0.024896137 0.0075723557 0.043944962
-0.013279727 -0.020183053 0.0046235328 -0.018089727 0.00011467168 -0.04622384 0.028465841 0.015679823
0.022745172 -0.010206623 0.018072546 0.08778612 0.016653657 0.007755305 0.015386926 0.03511779
0.023956858 0.027068244 -0.034688864 1.0901867e-10 0.048158932 0.00013833225 0.022918828 0.006259777
0.023318285 -0.022222042 0.009369003 0.026804125 -0.0060158586 -0.0015236662 -0.003837452 0.013775737
-0.0006654776 0.004924069 0.028197443 0.02860197 0.0016167007 -0.038062125 0.0017676078 -0.043669313
0.029620841 0.021387907 0.013953723 -0.0040205056 -0.002730688 -0.039805997 0.0070274915 -0.066965766
-0.004913203 -0.010000238 0.048923716 0.03291256 0.03126724 0.02930297 0.02096741 0.0022274065
0.005323532 0.03468594 0.005653039 0.0058486434 -0.05906609 -0.00046999162 -0.0012292545 0.0027831558
0.00041165604 0.00036497976 0.012114847 -0.0032527011 0.0010979705 0.007988844 0.018936506 -0.008960135
0.017602144 0.007345714 0.056360837 0.0071567004 0.029150985 0.028822089 0.009293423 0.005847259
-0.0022891394 0.02991832 -0.024515895 0.04443289 0.025405766 0.03236571 -0.00051324704 0.042047285
-0.05352671 -0.009346173 0.04160091 0.011346266 0.033164952 0.0028953755 0.035967976 -0.036542654
-0.010355605 0.020620424 5.14274e-05 -0.0030114711 4.476023e-05 0.00939579 -0.020388069 -0.02151681
0.007612784 0.033898607 0.0038699752 -0.042618293 -0.03168053 -0.0713783 -1.447603e-05 0.027096033
0.10020484 0.031168606 -0.0018706721 0.009266773 0.020609127 0.02221341 -1.9053905e-20 0.012535856
0.0043270937 0.00095140486 0.039334886 0.031287722 -0.039930444 -0.005477586 -0.03051737 -0.04895087
0.01776371 0.015860757 0.027351791 0.016298136 0.0002427035 0.010049968 0.032240897 0.0141164
-0.054724976 0.05201023 -0.0022267364 -0.019416215 0.017147176 0.021505011 0.023836784 0.020966478
0.042554393 0.037772957 -0.0017360386 0.0011437953 0.046074945 -1.5953807e-05 -0.0012842609 -0.00814429
-0.0054682335 0.01973347 0.07239761 0.05213093 0.031143276 -0.035734627 0.0234792 0.0070476225
00000000: e5f4 013d 0c1d 93bc 8f69 003d 8393 053e
00000010: 1338 a73b f68d 5bbc 47de a33c 96f7 9ebd
00000020: 30e4 113d f72f 353d a2cc 983c edc0 2932
00000030: 2dec be3b 07d2 cb3b 529b 0d3d 52c3 813c
00000040: 65da 21b8 e161 d13c c6cd 863b 6106 a339
00000050: 7f41 a53c b835 a7ba 9874 0bba 500d 8f3d
00000060: 9725 13ba 6e5b 893c 5067 473d 6544 ca3c
00000070: c2ab d6bc fe36 e03c 4670 c5bc c6e9 d33b
00000080: 2fe1 8b39 49c7 42bc 8cf7 ab3c 1bdc b03c
00000090: c388 e6b7 8b31 f8bc cf5d 103d eec0 133c
000000a0: e801 93bd be75 423d 164c 09bd ce4d c43a
000000b0: b7c8 7ebc 3de9 50bc 5e3e 07bd 383a 39bb
000000c0: ac67 143d 8efb 823b 853c 17bd 49ce 0e3d
000000d0: 6ea3 d73b 62d5 e034 f381 4e3d 6967 033c
000000e0: b972 f63c 6ba5 0bbc c2cd e63b 764d 853c
000000f0: d0b8 d53c 5e27 ab3b e43b 11bc bb40 55bd
00000100: f022 0fb8 f057 1a3d a92d 703d 5103 2fbd
00000110: b7d0 933c 0173 6035 3041 e13c 0b87 c43b
00000120: cfbd 103d 1c9f f63a 32ad e13a bdfe 72bb
00000130: 239e 9dbc 2040 873c 3002 843d 5024 a93c
00000140: 7caf 6b3d bc0f 2fbb bb4a 223d c819 3abd
00000150: c6db 0438 c280 ca3c 4624 40bd 69b9 443b
00000160: f9a0 143e f8b9 623c 63bb 0bbc 50d0 843b
00000170: be24 9c3a fcf2 cb3c 8621 f83b a2ff 333d
00000180: 3693 59bc ee56 a5bc 0181 973b e830 94bc
00000190: e47b f038 3655 3dbd 3231 e93c f972 803c
000001a0: 1554 ba3c ae39 27bc e00c 943c 36c9 b33d
000001b0: 406d 883c 3720 fe3b 7219 7c3c acd7 0f3d
000001c0: 2c41 c43c 39be dd3c e915 0ebd 0ebc ef2e
000001d0: 4d42 453d 480d 1139 44c0 bb3c d11e cd3b
000001e0: fd05 bf3c 000b b6bc 7280 193c 5394 db3c
000001f0: ae20 c5bb c1b5 c7ba c37d 7bbb a1b3 613c
00000200: 7273 2eba 165a a13b 53fe e63c ae4e ea3c
00000210: 79e7 d33a 08e7 1bbd 13af e73a 98de 32bd
00000220: 68a7 f23c b135 af3c 289e 643c 72be 83bb
00000230: 58f5 32bb 9d0b 23bd df46 e63b 5925 89bd
00000240: effe a0bb 0ad8 23bc 3c64 483d 52cf 063d
00000250: 1412 003d c80c f03c d9c3 ab3c aef9 113b
00000260: 0671 ae3b d812 0e3d 213d b93b faa5 bf3b
00000270: 49ef 71bd 3569 f6b9 f01e a1ba 9b65 363b
00000280: 8ad3 d739 c15a bf39 5a7d 463c 452b 55bb
00000290: c7e9 8f3a a4e3 023c bb20 9b3c 88cd 12bc
000002a0: 5f32 903c 51b4 f03b 9fda 663d c182 ea3b
000002b0: 0cce ee3c 4d1c ec3c 7143 183c 5d9a bf3b
000002c0: 6305 16bb 4417 f53c 8fd5 c8bc 43ff 353d
000002d0: c11f d03c e891 043d 6d8b 06ba c639 2c3d
000002e0: d33e 5bbd b120 19bc b765 2a3d b0e5 393c
000002f0: f9d7 073d 57c0 3d3b 2853 133d c0ad 15bd
00000300: 8eaa 29bc 2aec a83c c0b3 5738 1a5c 45bb
00000310: eebc 3b38 cdf0 193c e104 a7bc 0544 b0bc
00000320: a974 f93b 44d9 0a3d 699f 7d3b 8590 2ebd
00000330: 72c3 01bd c92e 92bd 13de 72b7 80f8 dd3c
00000340: 3238 cd3d 4e55 ff3c 5731 f5ba aad3 173c
00000350: 79d4 a83c e6f8 b53c 84f5 b39e 3163 4d3c
00000360: 4bca 8d3b b367 793a 9e1d 213d 8e27 003d
00000370: 1b8e 23bd 527d b3bb 90ff f9bc b580 48bd
00000380: 3385 913c 6bee 813c dd10 e03c ab83 853c
00000390: 3a7e 7e39 9fa8 243c 080f 043d 7948 673c
000003a0: 4c27 60bd ae08 553d 70ee 11bb c10e 9fbc
000003b0: 3c78 8c3c 472b b03c 5c45 c33c e4c1 ab3c
000003c0: 844d 2e3d d1b7 1a3d ca8b e3ba 67eb 953a
000003d0: 15b9 3c3d 8ad4 85b7 a554 a8ba a16f 05bc
000003e0: de2e b3bb 16a8 a13c 3345 943d 3e87 553d
000003f0: 2f20 ff3c 795e 12bd 7457 c03c beef e63b

transformer_encoder.layers.1.linear2.bias f4 [4]
0.024223708 0.055615894 0.024967775 -0.07718263
00000000: cc70 c63c 7ecd 633d 3889 cc3c ed11 9ebd

transformer_encoder.layers.1.norm1.weight f4 [4]
1.1355944 0.8982981 0.89847547 1.0052733
00000000: 285b 913f ddf6 653f 7d02 663f ccac 803f

transformer_encoder.layers.1.norm1.bias f4 [4]
-0.108732074 0.048978783 0.15835118 -0.013536706
00000000: ecae debd fa9d 483d d026 223e 0fc9 5dbc

transformer_encoder.layers.1.norm2.weight f4 [4]
0.8413293 0.90338343 0.94950604 1.0157851
00000000: 5b61 573f 2344 673f d412 733f 3f05 823f

transformer_encoder.layers.1.norm2.bias f4 [4]
0.040076602 -0.03823177 0.096439004 -0.23753932
00000000: 5d27 243d eb98 1cbd d081 c53d 823d 73be

transformer_decoder.layers.0.self_attn.in_proj_weight f4 [12, 4]
1.204139e-39 9.740255e-39 6.0284835e-38 -1.6718097e-38 -4.5926304e-38 -3.6527201e-38 -6.8828866e-38 -6.0408985e-38
3.9421225e-38 1.0094869e-38 -5.3817697e-38 -1.0438338e-38 1.4829178e-38 -3.9386714e-38 -9.43517e-39 1.6234616e-38
-4.215319e-39 -2.1761794e-38 -2.7297333e-38 -3.477852e-39 -2.2662888e-38 -4.5078592e-38 1.9695816e-38 6.745353e-38
-1.9160346e-38 2.2597289e-38 7.237683e-39 -1.2922758e-38 -7.141493e-39 4.5030838e-38 -4.359043e-39 -2.2704543e-38
0.2724072 -0.20704195 -0.21154791 -0.020581039 0.20945728 0.3305212 0.63874173 -0.61892164
-0.40745786 -0.09366482 0.40912616 0.6530786 0.40444463 -0.061143532 0.2630946 -0.41260839
00000000: a61c 0d00 de0f 6a00 661c a401 410b b680
00000010: ed0b 7a81 7ddf 4681 b85e bb81 eb72 a481
00000020: 2ba1 5601 63ec 6d00 7681 9281 d7a9 7180
00000030: b779 a100 1171 5681 6abd 6680 81c7 b000
00000040: 98e6 2d80 07f7 ec80 ee9e 1481 d6de 2580
00000050: e9c6 f680 636e 7581 ec77 d600 40a0 b701
00000060: 40a3 d080 0c10 f600 b7cf 4e00 64b7 8c80
00000070: 94c3 4d80 d42b 7501 3d77 2f80 073b f780
00000080: f578 8b3e ce02 54be 04a0 58be 9199 a8bc
00000090: f87b 563e 133a a93e 9484 233f a671 1ebf
000000a0: 519e d0be 57d3 bfbd fc78 d13e 2930 273f
000000b0: 5e13 cf3e a471 7abd 56b4 863e 6841 d3be

transformer_decoder.layers.0.self_attn.in_proj_bias f4 [12]
0.0 0.0 0.0 0.0 0.0 0.0 0.0 0.0
-0.108734585 -0.04624308 0.19336562 -0.007843935
00000000: 0000 0000 0000 0000 0000 0000 0000 0000
00000010: 0000 0000 0000 0000 0000 0000 0000 0000
00000020: 3db0 debd 6269 3dbd a301 463e d983 00bc

transformer_decoder.layers.0.self_attn.out_proj.weight f4 [4, 4]
-0.4864109 -0.32880217 0.4150502 -0.13881247 0.24110465 -0.7752291 -0.005841437 -0.39156044
0.47394145 0.09742887 -0.60322064 0.2152928 0.10299018 0.87185866 0.15914018 0.6391118
00000000: d90a f9be c258 a8be 7681 d43e db24 0ebe
00000010: 23e4 763e 6a75 46bf 8669 bfbb 9c7a c8be
00000020: 74a8 f23e ca88 c73d ab6c 1abf b775 5c3e
00000030: 84ec d23d 2132 5f3f a5f5 223e d59c 233f

transformer_decoder.layers.0.self_attn.out_proj.bias f4 [4]
0.08723408 0.048787415 -0.25849193 0.083934404
00000000: c8a7 b23d 50d5 473d 0e59 84be cde5 ab3d

transformer_decoder.layers.0.multihead_attn.in_proj_weight f4 [12, 4]
1.895053e-38 3.860177e-38 -1.2370569e-38 -5.3068854e-38 1.7627554e-38 -1.009203e-38 1.2816457e-38 1.488503e-39
2.9789495e-38 -4.40015e-40 6.72668e-38 4.641071e-39 -2.0014055e-38 -1.1097505e-38 3.3559966e-38 5.701792e-38
1.2467326e-38 7.703647e-39 -6.91538e-39 -3.2329043e-38 1.3041078e-38 1.3066088e-38 7.583575e-39 -2.999296e-38
-1.6579772e-38 -3.787602e-38 2.2860078e-38 -1.7906504e-38 -6.014767e-38 -3.96405e-40 -4.517151e-39 1.67067e-39
-0.32925072 -0.56562907 0.18480936 0.23103195 0.49914232 0.18385336 -0.009012958 0.54811645
0.5918625 0.032668132 0.67699575 -0.69694525 -0.40138364 -0.07226794 -0.29172155 -0.23062065
00000000: 5e5a ce00 042b 5201 1db4 8680 9877 9081
00000010: 73f2 bf00 79e4 6d80 118f 8b00 5735 1000
00000020: 7f30 2201 95ca 0480 1e1e b701 6b89 3200
00000030: 0bef d980 54d7 7880 c4b7 3601 b137 9b01
00000040: d5c1 8700 a2e2 5300 444d 4b80 1c04 3081
00000050: 3801 8e00 f046 8e00 ec93 5200 164c 2381
00000060: a989 b480 7837 4e81 99ec f800 0cfc c280
00000070: cfbc a381 0451 0480 fb2f 3180 2631 1200
00000080: 8d93 a8be 11cd 10bf aa3e 3d3e a493 6c3e
00000090: 958f ff3e 0e44 3c3e 16ab 13bc 5c51 0c3f
000000a0: 4d84 173f 05cf 053d 984f 2d3f 016b 32bf
000000b0: 2882 cdbe 3701 94bd 875c 95be d227 6cbe

transformer_decoder.layers.0.multihead_attn.in_proj_bias f4 [12]
0.0 0.0 0.0 0.0 0.0 0.0 0.0 0.0
0.011025935 -0.029948669 0.05643517 -0.03098048
00000000: 0000 0000 0000 0000 0000 0000 0000 0000
00000010: 0000 0000 0000 0000 0000 0000 0000 0000
00000020: 20a6 343c e956 f5bc 9128 673d c7ca fdbc

transformer_decoder.layers.0.multihead_attn.out_proj.weight f4 [4, 4]
0.42290816 -0.47984344 0.4934019 -0.386755 0.26472962 0.39581487 0.041199453 0.48713744
0.3509455 -0.0048338617 -0.0063843187 -0.077190764 -0.010960555 -0.19346502 0.08549989 0.4306649
00000000: 6b87 d83e 0aae f5be 2d9f fc3e c004 c6be
00000010: a48a 873e 3fa8 ca3e c2c0 283d 146a f93e
00000020: 21af b33e 5f65 9ebb 8c33 d1bb 3116 9ebd
00000030: e693 33bc b21b 46be 911a af3d 1c80 dc3e

transformer_decoder.layers.0.multihead_attn.out_proj.bias f4 [4]
0.099607326 0.094091274 -0.18372725 -0.06936197
00000000: edfe cb3d edb2 c03d ff22 3cbe a60d 8ebd
